outputs/models/deephit.pt (torch, 267086 bytes, 25 tensors)

weight f4 [64, 56]
000000 75 d5 31 bf 5a ca 4f be 92 ec 08 be c1 99 ab be
       -0.69466335 -0.20292035 -0.13371494 -0.33515742
000010 b9 c1 34 3f f1 92 f3 bd a0 52 47 bf 49 6f c3 be
       0.706081 -0.11893261 -0.7786045 -0.3817084
000020 81 da 2a bf 00 9f 31 3f 18 2c 0f 3f a3 fb ba be
       -0.6673966 0.6938324 0.55926657 -0.3652011
000030 11 c9 27 c0 95 27 91 bf 56 4f 1d bf 1b 40 80 3f
       -2.6216471 -1.1340204 -0.6144918 1.0019563
000040 e2 31 c0 3f 33 ea 20 bf 1e 30 aa 3e de 19 ef be
       1.5015223 -0.6285736 0.33239836 -0.46699423
000050 c3 d1 09 3f 70 bd a4 3e 06 8e 66 bf 40 1d f6 be
       0.53835696 0.3217578 -0.9006046 -0.4806919
000060 f2 fb a7 3f 9c 52 b9 bf 3a d6 e9 bf 99 f9 45 bf
       1.3123763 -1.4478335 -1.8268502 -0.7733398
000070 e9 b3 ac be f0 bb ed 3f 98 9a 2a 40 9c 68 b1 3f
       -0.3373101 1.8572979 2.6656857 1.3860049
000080 12 5b 72 bf 36 1f a1 bf 4a ae 9d be 2c 57 17 3f
       -0.9467021 -1.258765 -0.30797035 0.5911739
000090 6f da e1 3f 23 f1 b3 3f 22 99 19 bf c6 b0 16 be
       1.7644786 1.4057964 -0.5999929 -0.14715871
0000a0 a4 9f 85 3f 31 f7 d6 3e e1 0f 9f be 0a cb a4 bf
       1.0439343 0.41985467 -0.31066802 -1.2874463
0000b0 65 1e b5 bf 3e 32 fb be bf 67 9c bf 1c ad 0f bf
       -1.4149901 -0.4906177 -1.2219161 -0.5612352
0000c0 ec 43 19 3f fe 37 23 c0 c6 c0 e3 3e c4 00 ae 3f
       0.59869266 -2.5502925 0.44483012 1.3593984
0000d0 9d b5 0c 3f 36 8e 27 3f bb 0b 84 3f d9 18 ee be
       0.5496462 0.6545137 1.031608 -0.46503332
0000e0 4b 95 c2 bd ed 8e 4f 3f f3 05 36 c0 f2 5b 24 bf
       -0.095011316 0.8107746 -2.844113 -0.642028
0000f0 92 ad 4b 3e 7e 1b 40 bf 2a 3e 8f 40 7e 90 82 c0
       0.1989043 -0.7504195 4.4763384 -4.080138
000100 12 f1 16 bf f8 67 b3 be 46 e9 00 3f 45 49 00 3f
       -0.58961594 -0.3504026 0.50355947 0.501118
000110 82 73 a2 be bc de 98 3f f4 46 01 bf dd 55 18 3f
       -0.3172875 1.1942973 -0.5049889 0.59506017
000120 ec 0f 1a bf 34 2b 7a 3e 0c 18 1b 40 e5 2c 8a be
       -0.60180545 0.24430543 2.4233427 -0.26987377
000130 fa 10 86 3e 15 81 aa bd af 93 3c 3e f9 92 a5 bf
       0.26184827 -0.08325402 0.18415712 -1.2935477
000140 92 b4 41 3d 38 1e 0d 3e 09 8a 12 bf dd 1f 88 3f
       0.047291346 0.13781059 -0.57241875 1.0634724
000150 0e 28 c4 3e 13 3a 00 3f c2 6a f9 bd 8c e3 4e 3f
       0.3831181 0.50088614 -0.121785656 0.8081596
000160 1e 48 e1 be 7c 2e fb be 92 ec 9b be e6 93 72 bf
       -0.44000334 -0.49058902 -0.30453926 -0.94756925
000170 0e 6d eb bd b7 08 93 bd d9 a8 df 3e de 4a c1 be
       -0.1149541 -0.071793966 0.43683508 -0.37752432
000180 8c ee b4 3f 30 bc ab be a6 4d b7 3d fc 09 08 40
       1.4135299 -0.33542013 0.08950357 2.1256094
000190 f6 a7 56 bf a4 ab 16 3f ae b4 4f 3e 59 21 4c 3f
       -0.8385004 0.5885565 0.20283768 0.79738384
0001a0 39 16 32 bf 81 89 ac bf b2 a5 23 3f 76 b9 01 be
       -0.6956516 -1.3479463 0.63924706 -0.12668404
0001b0 78 21 9c bf 91 f3 dd 3e 40 35 74 be 1b 3e 32 3e
       -1.2197714 0.4334989 -0.23848438 0.17406504
0001c0 06 b5 52 be f9 91 9c bf 36 68 e5 3e dc 31 db bd
       -0.20576867 -1.2232047 0.4480607 -0.10702869
0001d0 bc 48 b1 3e 3a 1c b5 bf f1 87 53 3e de 05 43 40
       0.34625804 -1.4149239 0.20657326 3.047233
0001e0 2a 81 d2 bf ef b5 fd be c0 aa 1e be c8 9f f7 bf
       -1.6445668 -0.49552867 -0.15494823 -1.9345636
0001f0 32 d7 98 3f 7e c4 31 3f db 89 26 bf db 61 70 be
       1.1940672 0.6944045 -0.650541 -0.23474829
000200 6e 6b e0 c0 15 a5 f1 be da 19 71 40 fc ad 72 bd
       -7.013114 -0.4719626 3.7672029 -0.059247956
000210 c7 ea 5d 3e e7 2e 42 be 11 e1 7f bf a2 88 a5 bf
       0.21671592 -0.18963204 -0.999528 -1.2932322
000220 0d 27 22 bd 35 2b 0f bf a7 c4 9d 3f 3e c6 82 c0
       -0.039588023 -0.55925304 1.2325639 -4.0866995
000230 88 27 3f 3d 29 44 08 bf 42 62 42 be 05 9b fe 3d
       0.04666856 -0.53229004 -0.18982795 0.124319114
000240 ff 42 06 3f 86 a6 40 bd 07 91 6c be 76 e4 ef be
       0.5244598 -0.04703381 -0.23102199 -0.4685399
000250 24 0f d9 3d 21 05 a8 be e7 ad 59 bf 05 22 1e be
       0.10598591 -0.32816413 -0.8503098 -0.15442665
000260 c4 ec c5 bf 7d 1b 83 bf df be ac bd 09 8d 1f c0
       -1.546288 -1.0242764 -0.08434843 -2.492983
000270 6a ad 49 c0 25 35 35 bf cc 9f 25 3e aa e0 77 3f
       -3.1512094 -0.7078422 0.16174239 0.96827185
000280 9a de b2 be aa 9a 49 bd 85 ec 06 3e 47 2c f8 bd
       -0.34935457 -0.049219765 0.13176163 -0.1211782
000290 c4 96 6a 3f 18 07 0a 3f f4 88 4e bf d8 14 da 3f
       0.916363 0.53917074 -0.80677724 1.7037611
0002a0 ca bd 4c be fc e2 9f 3e 95 a4 31 c0 ef b0 32 3f
       -0.19994274 0.31227863 -2.7756703 0.6980123
0002b0 55 1f b1 3e cc 0e 40 40 e4 46 35 be 19 16 95 3f
       0.34594217 3.0009031 -0.17702824 1.1647369
0002c0 e4 d7 a7 3f e6 20 6b bf 24 fa db 3d eb 01 8f 3a
       1.311276 -0.91847074 0.1074107 0.0010910606
0002d0 a3 75 14 3f 0a e8 40 bf 60 0f bb 3e a0 55 9a 3e
       0.57992 -0.75354064 0.36535168 0.30143452
0002e0 f6 8b 73 3f a4 39 a9 bd 97 6f 4f c0 86 75 da 3e
       0.9513544 -0.08262947 -3.241186 0.42667788
0002f0 06 8d e8 bd b3 f1 c6 be 05 c2 14 bf 49 e7 62 3f
       -0.11355023 -0.38856277 -0.5810855 0.88634163
000300 87 11 9f bf f2 48 25 c0 2a 63 4f 3f a1 c4 b3 c0
       -1.2427224 -2.5825772 0.8101069 -5.6177526
000310 ae 23 1c c0 c0 33 90 bf 94 aa 47 3e 4d 5c 73 3d
       -2.4396777 -1.1265793 0.19498664 0.059414197
000320 bb c2 18 3e 04 54 ec bf da 9a 5b bf 93 57 73 bf
       0.14918034 -1.846314 -0.8578316 -0.950555
000330 af 18 66 3d 08 95 34 bf 91 e6 b7 bf 80 82 4c bf
       0.056175884 -0.70539904 -1.4367238 -0.7988663
000340 98 7e ba 3f fc a6 54 bf 1a ec 46 3f ba 1a 26 3f
       1.4569883 -0.830673 0.7770401 0.6488453
000350 05 e1 57 c0 de 53 20 be 65 41 5d bf 58 e5 12 bc
       -3.373109 -0.15656993 -0.8642791 -0.008965813
000360 04 e7 8d be 20 9e 08 bf 2c ed 26 bf d9 e4 62 3f
       -0.27715313 -0.5336628 -0.65205646 0.88630444
000370 39 a3 04 bf 14 af 8e 3f 02 ca 60 be 94 ad b3 bf
       -0.5181156 1.114718 -0.2195206 -1.4037347
000380 df e1 c5 bf 64 6e b3 3e 36 4f 3c bf b8 a1 85 3f
       -1.5459555 0.3504516 -0.73558366 1.0439978
000390 4f 98 3d 3f 9a 71 87 bd a1 f3 30 40 4a ed f0 bf
       0.7406053 -0.06613465 2.76487 -1.8822415
0003a0 7b f5 31 c0 ed b1 82 3f ec fa 47 bf 93 19 97 bd
       -2.780608 1.0210549 -0.7811725 -0.07377925
0003b0 a8 3e 70 bf d7 35 9e 3e c9 ec 78 3f f3 79 09 40
       -0.93845606 0.30900452 0.97236305 2.1480682
0003c0 e4 ca d1 be fd b3 bb bf 05 06 6a 40 74 e1 8f 3e
       -0.40975106 -1.4664303 3.6566174 0.28101695
0003d0 91 c4 f7 3e ac 58 e0 bc bc d9 08 40 a6 12 14 40
       0.48392156 -0.027386032 2.1382895 2.3136382
0003e0 1a 90 b1 3f 68 86 22 3e 30 59 1f c0 14 0d d8 3f
       1.3872101 0.15871584 -2.4898186 1.6878991
0003f0 3c 67 89 be d4 3e 88 3d 00 e5 ca be 33 1b 90 be
       -0.26836574 0.066526085 -0.39627838 -0.2814575

bias f4 [64]
000000 59 51 d5 be 90 a1 93 c0 7b a9 1e c0 ab f7 98 3f
       -0.41663626 -4.613472 -2.4790943 1.1950582
000010 1e ec 4e c0 05 cf 18 c0 77 c2 11 c0 f4 e9 19 c0
       -3.2331614 -2.3876355 -2.2774942 -2.4049044
000020 c3 61 a6 bf ee d4 7b bf 5a 89 c8 bf 9b 5e 54 c0
       -1.2998585 -0.9837178 -1.5666916 -3.3182743
000030 91 b8 21 c0 eb 84 1d 3f b4 be d5 bf 82 cb e1 be
       -2.52689 0.6153094 -1.6698823 -0.44100577
000040 46 f0 d5 bd 78 92 4f c0 08 7b 8c c0 cd 02 23 c0
       -0.10446219 -3.2433147 -4.3900185 -2.547046
000050 df 27 68 bf a2 81 ac 3f 66 30 d3 bf c4 71 9d bf
       -0.9068584 1.3477061 -1.6499145 -1.2300344
000060 75 6e 3e c0 d3 33 15 3f d5 38 93 bf 08 21 9d c0
       -2.9754918 0.582822 -1.1501719 -4.910282
000070 0d 48 77 c0 b0 39 8c bf 48 fa 90 be 9f 43 e1 be
       -3.8637726 -1.0955105 -0.2831595 -0.43996903
000080 b2 fe ec be d9 68 d8 bf 76 25 be 3f 8f e0 09 c0
       -0.46288067 -1.6906997 1.4855182 -2.154331
000090 99 2d 01 bf b6 88 47 c0 13 4e 94 c0 4c b8 01 40
       -0.504602 -3.1177192 -4.6345305 2.0268736
0000a0 24 c8 cd bf 73 79 ff be bb a0 e8 bf f7 e2 32 c0
       -1.6076703 -0.49897346 -1.8174051 -2.7951028
0000b0 ef 01 94 be 54 ae 9f 3f e0 31 2c bf 9f 0c b4 be
       -0.28907725 1.2475076 -0.67263603 -0.3516588
0000c0 d5 75 37 bf 0d f6 7b c0 2d 01 8c bf 1e b0 a5 bf
       -0.7166417 -3.9368927 -1.0937859 -1.2944372
0000d0 1c 36 91 c0 e7 a9 80 3e 9b 52 2b c0 df 39 e6 3e
       -4.537855 0.25129625 -2.6769168 0.44966027
0000e0 c7 c5 35 c0 66 25 86 bf f2 82 d8 bf 5d cb 1f 3f
       -2.8401964 -1.0480163 -1.6914961 0.6241968
0000f0 8d fc 99 bf 23 0d d8 bf 5b e6 0e bf 6d 45 98 bf
       -1.2030197 -1.6879009 -0.55820245 -1.1896187

weight f4 [64]
000000 be b3 e5 3f 48 9e f6 3f a6 f1 21 40 53 7c 0f 40
       1.7945478 1.9267054 2.530374 2.2419631
000010 bf d3 eb 3f 6d 53 da 3f 39 eb 05 40 fd f7 cf 3f
       1.8423995 1.705671 2.0924819 1.6247555
000020 a2 c4 e9 3f 82 f3 12 40 74 55 1b 40 9a b5 0f 40
       1.8263133 2.2961125 2.4270906 2.245459
000030 8d df 2a 40 de 04 ef 3f c5 c2 05 40 7e 53 0d 40
       2.6698945 1.867336 2.0900128 2.208221
000040 65 97 fb 3f 44 4c 16 40 ba e0 ef 3f 3c ff 09 40
       1.9655577 2.348405 1.8740456 2.1562033
000050 9d ea 0f 40 28 a4 07 40 f1 d0 f3 3f ac 61 f4 3f
       2.2486947 2.1193943 1.9048139 1.9092307
000060 31 96 13 40 37 63 fa 3f ba 59 fa 3f 2b 8f 0d 40
       2.306042 1.9561528 1.9558632 2.2118633
000070 e3 fc 05 40 60 ab d2 3f 3f 48 06 40 94 09 ed 3f
       2.09356 1.645855 2.0981596 1.8518548
000080 34 4e cc 3f 1d 61 e9 3f 90 4b ed 3f 7e 6e cf 3f
       1.5961366 1.8232762 1.8538685 1.6205595
000090 fc b8 04 40 91 c7 1e 40 ac 76 17 40 58 98 22 40
       2.0737906 2.4809306 2.3666182 2.5405483
0000a0 ca cf ea 3f 53 5b 0b 40 70 f8 01 40 a2 d5 04 40
       1.8344662 2.177449 2.0307884 2.075539
0000b0 e6 5b 09 40 7f 79 04 40 7e fc 18 40 4b ee da 3f
       2.146234 2.0699155 2.390411 1.7103971
0000c0 1a 29 16 40 8e 72 35 40 49 20 f8 3f 3b 97 22 40
       2.3462586 2.8351169 1.9384853 2.5404804
0000d0 a4 3b f8 3f 58 55 0a 40 27 ff 32 40 96 85 02 40
       1.9393201 2.161459 2.7968233 2.0394034
0000e0 d0 6f e2 3f 5c 06 10 40 a5 8a 0c 40 e1 d4 fb 3f
       1.7690372 2.2503881 2.1959622 1.967434
0000f0 48 de 00 40 31 2d fc 3f 40 f3 db 3f 4f a6 9f 3f
       2.013567 1.9701291 1.7183609 1.2472628

bias f4 [64]
000000 dd 0d 26 be 01 da f5 be bf cf 93 be b9 0e b5 3e
       -0.16216226 -0.48017886 -0.28869435 0.35362795
000010 73 0b d3 be e1 dc 04 bf c5 da 95 3e a6 68 ad 3d
       -0.41219673 -0.51899534 0.2926847 0.08467226
000020 16 5b 6b 3e c2 10 00 3f 4b 76 15 3f fb d1 04 3e
       0.22983965 0.5002557 0.58383626 0.12970726
000030 80 9d 25 3f c9 10 83 be b5 a4 3c 3e 84 01 04 3c
       0.6469345 -0.25598744 0.18422206 0.008057002
000040 dc 96 81 3e 82 91 db 3e f3 cb 1a bf 48 8d 95 be
       0.2531041 0.4288445 -0.6046745 -0.29209352
000050 3b 3a 28 3e 5a e6 a4 3e 37 01 87 bc 65 8b a8 3d
       0.16428463 0.32206994 -0.016480071 0.082297124
000060 3f 26 7f 3e 8f 0d 99 3e a6 57 0c be de 4b d2 3e
       0.24916933 0.29893157 -0.1370531 0.41073507
000070 89 01 f2 be cb 81 20 3e d5 17 d2 3e 8c 68 89 be
       -0.47266796 0.15674512 0.41033807 -0.26837575
000080 a8 d4 69 3c b9 10 ca be 90 38 90 bd ef 64 99 be
       0.014271893 -0.39465883 -0.070420384 -0.2995982
000090 9c 87 b3 3d d9 80 12 3f 83 00 0a bd c5 3b 32 3f
       0.087661 0.57227856 -0.033691894 0.6962245
0000a0 7b 47 0a bf cd 6a 9e 3e 5a 98 48 3d e7 ea c8 3e
       -0.5401532 0.30940858 0.04897342 0.39241716
0000b0 80 a0 cc 3e fa 7c 84 3e 27 3f ad 3d bd 6b de 3c
       0.39966202 0.258766 0.08459311 0.027150983
0000c0 93 96 93 3e 54 2c 1d 3f be 1e 22 3f 60 3a 8b 3e
       0.28825817 0.61395764 0.6332816 0.27192974
0000d0 4c fe c2 3e 56 fa e2 3e 79 34 d1 3e 31 63 4e 3d
       0.38084638 0.44331616 0.40860346 0.050387565
0000e0 5c d2 8a be 5e c5 b3 3b 21 b8 b5 bd 6d 42 78 3d
       -0.27113616 0.0054861745 -0.088730104 0.060610224
0000f0 ad ef 4d be df 8d 82 be db 61 62 bd d5 03 ee be
       -0.2011096 -0.25498864 -0.055269103 -0.464873

running_mean f4 [64]
000000 79 ff 5f 40 9d 44 8e 3f b4 66 84 40 12 f2 a1 40
       3.4999678 1.1114689 4.137537 5.0607996
000010 d3 0e 17 40 b3 fa 0f 40 10 2e 4b 40 06 b3 19 40
       2.3602798 2.2496765 3.1746864 2.4015517
000020 14 20 1f 40 aa ab 6a 40 d0 c7 52 40 b8 48 36 40
       2.486333 3.6667275 3.2934456 2.8481884
000030 2d fb 2b 40 1c b8 71 40 e4 a6 69 40 9c 9c 4b 40
       2.6872056 3.7768621 3.6508112 3.1814337
000040 04 8e 68 40 bd c9 2b 40 40 dd a5 3f e5 67 1e 40
       3.633668 2.6841881 1.2958145 2.4750912
000050 28 64 50 40 d8 1c ba 40 b4 36 73 40 c4 8b 7a 40
       3.256113 5.816021 3.8002138 3.9147806
000060 96 5b 3f 40 bb 75 89 40 04 74 68 40 d0 d5 d0 3f
       2.989965 4.2956214 3.632081 1.631525
000070 d8 b7 0b 40 74 e4 51 40 68 4d 5a 40 5e 4a 79 40
       2.183096 3.2795687 3.4109745 3.895164
000080 e3 99 97 40 65 b3 2a 40 32 53 b0 40 26 79 4d 40
       4.737535 2.6671994 5.5101557 3.2105193
000090 a0 f4 7e 40 eb 20 48 40 ab 95 0c 40 b9 7b b1 40
       3.9836807 3.1270092 2.196635 5.546353
0000a0 e1 2a 60 40 56 cd 7f 40 fb ca 41 40 22 79 2b 40
       3.5026171 3.9969077 3.028014 2.6792684
0000b0 9e b5 77 40 a7 ff bc 40 6b 75 5b 40 87 2d 84 40
       3.87046 5.9062076 3.4290416 4.1305575
0000c0 43 bc 87 40 68 6a e5 3f b1 d8 8d 40 3a 7b 54 40
       4.241731 1.7923098 4.4327016 3.3200212
0000d0 96 e2 93 3f 45 5b 82 40 ab 4b 1e 40 91 47 9c 40
       1.1553524 4.0736413 2.4733684 4.883736
0000e0 2d 00 35 40 e2 d8 7d 40 96 be 81 40 25 59 96 40
       2.8281357 3.9663625 4.054515 4.698382
0000f0 56 65 4d 40 0c 89 3e 40 24 f4 5b 40 98 b2 4f 40
       3.20931 2.9771147 3.4367762 3.2452755

running_var f4 [64]
000000 33 82 12 42 22 8b 01 41 98 c5 06 42 7d 9d 0d 42
       36.627148 8.096468 33.692963 35.403797
000010 25 8f c8 41 a6 ad 8e 41 e5 e4 e5 41 50 94 a9 41
       25.069895 17.83479 28.736765 21.197418
000020 43 0f dc 41 56 f3 0a 42 c9 b6 a6 41 44 41 0e 42
       27.507452 34.737633 20.83925 35.563736
000030 3f 10 8d 41 1d de ef 41 9a b9 2b 42 c1 47 b2 41
       17.632933 29.983454 42.93125 22.285036
000040 01 81 f1 41 42 be c2 41 c1 4b 0d 41 88 fc 99 41
       30.18799 24.3429 8.830995 19.248306
000050 ce 19 dc 41 41 be 39 42 eb 19 ee 41 16 e5 00 42
       27.5126 46.435795 29.762655 32.223717
000060 08 61 ed 41 82 05 1f 42 35 a4 f5 41 e5 4a 28 41
       29.672379 39.75538 30.70518 10.518285
000070 33 cb 82 41 e1 66 e5 41 4f 61 c6 41 09 27 ee 41
       16.349218 28.675234 24.797514 29.76906
000080 13 0f fd 41 76 d1 f0 41 35 31 34 42 a3 f6 fc 41
       31.63236 30.102276 45.048054 31.620428
000090 1d d5 36 42 97 a4 f9 41 04 99 a4 41 6c f6 13 42
       45.70812 31.205366 20.574715 36.990646
0000a0 ad b0 ea 41 c3 66 17 42 d5 56 a4 41 da 01 cc 41
       29.336267 37.850353 20.542398 25.500904
0000b0 71 5d f8 41 c2 7d d8 42 5f c8 ca 41 8e 04 fd 41
       31.045626 108.24562 25.347837 31.627224
0000c0 ce b3 71 42 a3 59 38 41 b0 28 a8 42 df 17 11 42
       60.42559 11.521884 84.07947 36.27331
0000d0 d4 23 07 41 fc 98 cd 41 f1 45 a1 41 80 90 69 42
       8.446247 25.6997 20.159151 58.391113
0000e0 0b de 1c 42 09 52 15 42 6f 21 29 42 c4 57 30 42
       39.21684 37.330112 42.28265 44.08571
0000f0 28 66 a3 41 78 c9 cc 41 ce 4e d3 41 d7 d8 14 42
       20.424881 25.598373 26.413479 37.211758

weight f4 [64, 64]
000000 81 a9 6f bf 8d 31 10 bf 57 ef 50 3f c1 97 9a 3d
       -0.9361802 -0.5632561 0.81615204 0.07548476
000010 33 ca 17 bf 0c 9d 19 bf 77 84 51 3f fb f1 91 be
       -0.59292907 -0.6000526 0.8184275 -0.2850493
000020 26 db 45 bf 7c a1 17 3f 92 4a 15 40 f5 4e 86 be
       -0.7728752 0.5923078 2.3326764 -0.26232114
000030 ee b6 e5 3e ee ee 16 c0 42 f8 de bf 4f f0 a1 3e
       0.44866127 -2.358333 -1.7419512 0.31628653
000040 bc 75 a4 bf 88 1b 83 3f b0 82 78 3f ca fc 4b bf
       -1.284843 1.0242777 0.97074413 -0.796826
000050 c4 e0 e0 be b1 54 0c 40 ac 80 97 3f cf 92 17 3f
       -0.43921483 2.1926692 1.1836143 0.5920839
000060 a5 02 83 3f c8 30 2f c0 6c fb 51 bf 63 44 f2 bb
       1.0235182 -2.7373524 -0.82024264 -0.0073934062
000070 80 dc ec 3f 75 84 a1 3f 49 90 e1 be 2a 6c 80 3f
       1.8504791 1.2618548 -0.44055393 1.0033009
000080 ee 83 07 3f e3 5c 4d c0 6a 44 ee 3e 8a 91 86 3f
       0.52935684 -3.2087944 0.4653657 1.0513165
000090 27 48 ab be 05 6c 67 3f 4f fd 86 3e 13 fd db 3f
       -0.33453485 0.903992 0.26365134 1.7186607
0000a0 a3 b7 0a bf 61 4b f9 3e ba b0 a5 3f 3b 6e b7 be
       -0.5418646 0.48690322 1.2944558 -0.35826287
0000b0 7e bb ab 3f 85 cf e8 bf 96 00 cd 3f 25 64 bb 3e
       1.3416593 -1.818833 1.6015804 0.36599842
0000c0 67 c7 3e c0 7f 89 90 3e 8b 74 b3 bf 02 d5 00 c0
       -2.9809206 0.282299 -1.4019941 -2.013001
0000d0 4b ed 3f 3f a4 7a 43 3f 26 a4 55 be 09 a2 92 bf
       0.74971455 0.7635901 -0.20863399 -1.1455699
0000e0 38 c3 a4 bf c8 f4 49 40 17 c2 48 bf 23 8b 19 3d
       -1.2872076 3.1555653 -0.7842116 0.037486207
0000f0 d6 13 9a 3f d7 d7 9f bf 60 3a bc bf 8e 69 0c c0
       1.2037303 -1.2487744 -1.4705315 -2.1939425
000100 48 db 87 3f de 55 ad 3f 2d c5 ab 3e 56 27 54 c0
       1.0613794 1.354183 0.3354887 -3.3149009
000110 7b 14 bb 3e a5 ea d4 3d 9e b4 84 bf 83 7e da be
       0.36539063 0.103963174 -1.036762 -0.42674646
000120 36 10 a2 be 22 2f 2f 40 55 34 fe 3f 8b ca 9e 3f
       -0.31652993 2.7372518 1.985972 1.2405561
000130 ac 52 23 bf 6b 9c 57 c0 d4 cf 6e 3f 1a a8 88 be
       -0.6379802 -3.368922 0.9328587 -0.2669075
000140 0c 6f 18 3f ca e0 0b c0 4a ea 90 bf bc c4 e5 3f
       0.59544444 -2.185595 -1.1321499 1.7950664
000150 73 c9 b9 3f 9d 0d 5e 3f 74 b4 92 3f 15 52 25 3f
       1.4514602 0.8673952 1.146132 0.6457837
000160 08 f5 76 be 18 f9 5e be 5e 63 5a 3e 7e 43 72 3f
       -0.2411691 -0.21774709 0.21326968 0.94634235
000170 e7 c8 72 3f 9f 18 42 bf 02 d8 97 be 6a c6 44 3f
       0.948378 -0.7581882 -0.29656988 0.76865256
000180 78 f9 39 3f b2 b7 53 bf 5a 61 68 bf ef ac a6 bf
       0.72646284 -0.8270217 -0.90773547 -1.3021525
000190 eb b6 44 bf b1 7c 0e 3f f9 c8 dc be e3 00 1f bf
       -0.7684161 0.55659014 -0.4312208 -0.6211073
0001a0 60 5a 3e 40 6c 4a 7d 3f ca 14 46 be 79 2c 41 3f
       2.974266 0.98941684 -0.19343868 0.75458485
0001b0 27 a0 0c 40 da 87 09 be e2 e7 89 3f e7 ea 27 c0
       2.197275 -0.1343073 1.077389 -2.6237123
0001c0 41 51 bd 3d 4f f1 5d 3f 2f bf b4 3f 8a 5a df bf
       0.092440136 0.8669633 1.4120845 -1.7449505
0001d0 3d bc 1b bf 12 9f f7 3e e5 85 13 3f d4 b6 90 3e
       -0.60834104 0.4836355 0.5762618 0.28264487
0001e0 3e 22 6d 3f 33 ae 35 3d ce 36 4e 3f 0f 8b 3c c0
       0.92630374 0.044355582 0.80552375 -2.9459875
0001f0 7b eb 8d 3f 80 a3 a1 3d b3 a4 a6 bf 2e 8c ec be
       1.1087488 0.07892513 -1.3019012 -0.462007
000200 12 8b 2b bd d0 37 57 3f 02 a3 5e 40 62 6b be bf
       -0.041880675 0.8406954 3.4786992 -1.4876521
000210 16 28 a1 3f 25 6f 38 bf a0 15 41 bf 30 ce 4d be
       1.2590358 -0.72044593 -0.7542362 -0.20098186
000220 8e 1d 09 c0 4b 2e 9c bf 97 b0 08 bf 65 f9 f0 bf
       -2.1424289 -1.2201627 -0.53394455 -1.8826109
000230 54 57 47 3f 4a 3e d6 be 9c 24 21 be ec ad df bf
       0.7786763 -0.41844398 -0.15736622 -1.7474952
000240 25 54 88 3f 1a 32 03 3f 48 15 b4 bf 8b 66 a2 be
       1.0650679 0.51248324 -1.4068995 -0.3171886
000250 af d5 f9 be ed a3 4d 3f 32 e8 67 40 c5 78 33 bf
       -0.4879584 0.80328256 3.623547 -0.70106155
000260 57 3d 2a c0 0a f1 20 c0 5f 7f 89 3e 8b ce a2 3e
       -2.659994 -2.5147119 0.2685499 0.31798205
000270 45 cd b9 3f 9d 6a 41 bf a0 d2 5d bf 8b a7 32 3f
       1.4515768 -0.75553304 -0.86649513 0.697869
000280 ff 71 09 bf 90 fb 47 be eb b0 55 3e d8 b3 6f bd
       -0.5368957 -0.19529557 0.2086827 -0.05852112
000290 03 8c b3 bf 2e 27 b9 3e d5 a9 d3 3f 21 0c a1 3d
       -1.4027103 0.36162704 1.6536204 0.078636415
0002a0 93 8f bf bf cb 74 8c bf 28 d9 4b 3f 0e 81 ca bf
       -1.496569 -1.0973142 0.7962823 -1.5820634
0002b0 28 1f f1 3e f5 5a af bf d0 7e 64 3f 7d 48 b7 3d
       0.47094083 -1.3699633 0.89256 0.08949373
0002c0 30 61 f1 3e 3f c6 cc 3e 4b e4 0d bf bb 29 77 bf
       0.4714446 0.39995 -0.5542647 -0.9654805
0002d0 b4 a4 81 be 70 5f 4a 3d eb 9a a7 3f aa d7 f8 3f
       -0.2532097 0.049407423 1.3094152 1.9440815
0002e0 9a e4 0b c0 ec 6c 93 3f 68 e4 db 3e 3f a1 a8 bf
       -2.1858277 1.1517615 0.42947698 -1.3174208
0002f0 ba 01 45 be ab d9 f3 bf 74 11 90 3d ab e1 55 3e
       -0.1923894 -1.9050802 0.07034579 0.20886867
000300 42 bb af bf 75 8d 77 bf e9 ff 28 3d 20 30 3d be
       -1.3729022 -0.9670022 0.04125968 -0.1847539
000310 38 d0 ff bf cf 8e a2 bf a7 84 7f 3e 67 07 27 bf
       -1.9985418 -1.2699832 0.24952947 -0.6524567
000320 f8 2a 92 3f ed 33 c2 be 65 7d 2f c0 56 e9 a7 3f
       1.1419363 -0.3793024 -2.7420285 1.3118083
000330 bf 91 50 3d ac 9c dc 3f 6d 24 ba 3f cc bc 33 bf
       0.050920244 1.7235312 1.4542366 -0.70209956
000340 74 9d 9e be 99 e7 d1 bc 18 9c b7 be e7 9f 89 3d
       -0.30979502 -0.02562313 -0.35861278 0.06719952
000350 2e 3f 19 bc 94 03 63 c0 ac e6 87 bf 45 ea 2d be
       -0.009353442 -3.5470934 -1.061727 -0.16983898
000360 a3 a9 70 3f a8 01 aa bf a9 5d 4a c0 4a 95 f1 be
       0.94008845 -1.3281755 -3.1619666 -0.4718421
000370 23 10 17 3f fe af 80 bf 9f 77 90 bf a6 ad de bf
       0.59009 -1.0053709 -1.1286505 -1.7396743
000380 3e fc bf bf 3d 11 c3 3e 94 99 c6 bf cc 2d 2c bf
       -1.4998853 0.3809909 -1.5515618 -0.6725738
000390 59 2c 7b be 1f ff 15 bf 43 67 89 3d e1 29 5c c0
       -0.24528636 -0.5859241 0.06709149 -3.440056
0003a0 4e fa 57 bf be d8 8a bf e7 1a a4 be af 13 19 bf
       -0.8436631 -1.0847394 -0.32051775 -0.5979566
0003b0 7f 73 07 c0 30 1d db 3e c1 04 42 c0 9a 18 ce 3d
       -2.1164243 0.42795706 -3.0315402 0.10063286
0003c0 65 44 d5 3f 87 88 8d 3f 04 ce 9f be 1c 37 0a c0
       1.6661497 1.105729 -0.31211865 -2.1596136
0003d0 af da e5 bf 0b 14 cd bf d8 10 02 3f ca e1 3a 3f
       -1.7957362 -1.6021742 0.5080695 0.73000777
0003e0 39 ec 76 3f cd ed 6e bf 55 d0 cd bf 1c 53 25 3e
       0.964542 -0.93331605 -1.6079203 0.16144985
0003f0 59 a4 6b 3e 5b 13 b0 3d cc 58 e7 3e 4b 8a 1b 3f
       0.23011912 0.08597442 0.45184934 0.60757893

bias f4 [64]
000000 2b 8b 00 40 b5 79 1d 40 bd e7 aa 3f b8 f9 9a bd
       2.0084941 2.4605534 1.3351971 -0.07567161
000010 06 4b da 3f 2a b0 54 3e fd 6b d8 3f 73 0f 43 3f
       1.7054145 0.20770326 1.6907955 0.7619545
000020 ce 9f 86 40 64 85 1a 40 9e 5f a2 be 44 b3 51 40
       4.2070074 2.4143915 -0.31713575 3.2765665
000030 3b f5 66 be 31 71 e2 bf a1 a3 92 3e 54 30 8b bf
       -0.22554485 -1.7690793 0.28640464 -1.0874124
000040 5e ab 41 3e 01 c5 03 40 1c 68 f2 3f fb 1a b2 3f
       0.18913028 2.0588992 1.8938022 1.3914484
000050 52 ee 6b 40 7c 57 08 40 d2 48 b2 3e b3 37 5a 3e
       3.686421 2.1303396 0.34821182 0.2131031
000060 27 94 87 40 3e 44 dc 3c 7b 01 9b 3f 45 94 3d c0
       4.236835 0.02688801 1.2109827 -2.9621747
000070 89 c5 5e 40 da d2 5a 40 da 71 43 40 80 b7 26 40
       3.4808066 3.4191194 3.053824 2.60495
000080 f0 d3 84 40 fd f0 c2 3f 16 df 40 3f d6 80 34 3f
       4.1508713 1.5229794 0.753404 0.7050909
000090 86 44 56 3f d8 87 1a 40 85 b7 04 40 dd df 4f 3f
       0.8369831 2.4145412 2.0737011 0.81200963
0000a0 90 a7 1b 40 ae ae 09 40 5b 8f 31 3f 93 17 68 3f
       2.4321022 2.1512866 0.6935937 0.9066097
0000b0 f7 f5 2e 3f e0 58 ad 3f c5 2f 84 40 d0 ae 9f 3f
       0.6834406 1.3542747 4.1308312 1.2475224
0000c0 d7 c9 9c 3e b6 e2 eb 3e 36 d0 32 40 ca cd fb 3f
       0.30622742 0.46071404 2.7939582 1.9672177
0000d0 b9 81 45 40 8b 8b ab 3e bb 31 ec 3f 5c 3b 00 40
       3.0860426 0.335049 1.8452677 2.003623
0000e0 ef b7 21 40 09 4f e2 3e 02 3f 9c 3f b9 ff 8d 3f
       2.5268514 0.44200924 1.2206728 1.1093665
0000f0 07 dd ae 3f ea d0 4d 40 b8 4c 6e 3f 2d a7 d0 3f
       1.3661202 3.215876 0.93085814 1.6301018

weight f4 [64]
000000 73 d9 1e 40 f4 28 e2 3f 11 a2 07 40 78 ef 08 40
       2.482022 1.7668748 2.1192667 2.139616
000010 85 23 0b 40 99 a7 02 40 ee 95 e9 3f f8 a4 00 40
       2.174043 2.0414793 1.824888 2.010069
000020 16 85 ee 3f de 67 fa 3f 9c 1e 0c 40 cd a9 f0 3f
       1.8634365 1.9562948 2.1893682 1.8801819
000030 86 ff a7 be 89 2c 97 3f 43 2a e0 3f 68 df f0 3f
       -0.32812136 1.1810466 1.7512897 1.8818178
000040 64 0f 06 40 34 e8 23 40 f1 89 26 40 b9 35 fa 3f
       2.0946894 2.5610476 2.6021693 1.9547645
000050 5a e0 bb 3f 36 47 02 40 81 f7 b4 3f 7c 5e d9 3f
       1.4677842 2.0355964 1.4138032 1.6981959
000060 c0 57 04 40 79 fc d3 3f 33 bb 15 40 d7 53 e5 3f
       2.0678558 1.6561424 2.3395507 1.7916211
000070 d3 6c 13 40 b7 69 f9 3f 62 57 d9 3f db c6 11 40
       2.303517 1.9485387 1.6979792 2.2777622
000080 d2 8f 1b 40 ca e5 bd 3f a7 dd 0b 40 98 f4 0e 40
       2.430653 1.4835751 2.1854036 2.2336788
000090 8c 4e 07 40 bc bf da 3f fb 68 20 40 6e 9a 0c 40
       2.1141691 1.7089763 2.5064075 2.1969256
0000a0 44 4f 04 40 16 3b 05 40 b1 18 fd 3f 3b 0b fa 3f
       2.067338 2.0817313 1.977316 1.9534677
0000b0 f4 47 c0 3f 67 b6 07 40 5e 63 ff 3f ba 8a 12 40
       1.5021958 2.120508 1.99522 2.2897172
0000c0 e8 91 ea 3f 4d 8a 20 40 ed 68 83 3f 73 05 c8 3f
       1.8325777 2.5084412 1.0266396 1.5626663
0000d0 f1 96 18 40 a4 87 dc 3f 35 37 18 40 a4 8f 0d 40
       2.3842127 1.7228894 2.3783696 2.2118921
0000e0 df 4d f9 3f 35 e9 fd 3f 88 8d fe 3f 82 cd 02 40
       1.9476889 1.9836794 1.9886942 2.0437932
0000f0 6c 36 2d 40 81 c3 d8 3f 9a dd 03 40 e5 5a 20 40
       2.7064466 1.6934663 2.0604005 2.5055478

bias f4 [64]
000000 20 93 f9 be 15 0b 94 3f 5e fa f2 bd d3 d2 8d 3e
       -0.4874506 1.1565882 -0.1186416 0.2769991
000010 3e 9f c4 3d 49 47 33 bf 2b 7a 02 be a1 7c cf bd
       0.096006855 -0.7003065 -0.12741916 -0.10131193
000020 98 18 ac 3e d7 ec b6 be 1d 0c 66 bf bd a4 ed 3d
       0.33612514 -0.3572757 -0.89862233 0.11603687
000030 5f db c4 bf 25 92 6a bf 24 8a 38 bf 57 dd 11 bf
       -1.5379447 -0.9162925 -0.72085786 -0.5697836
000040 00 23 81 3d 7e b5 ef 3e 03 c1 87 3e db 54 c3 bd
       0.06305504 0.46818155 0.26514444 -0.09537669
000050 cd 0a ee bd 48 51 2b be 2e 09 63 3f 76 26 f0 bd
       -0.11623154 -0.16730225 0.8868588 -0.11726086
000060 53 92 4f be 33 b2 90 3e b5 a6 f2 be 80 7f 47 3e
       -0.20270662 0.28260955 -0.47392812 0.19482231
000070 9a df 83 bb bb 0d b2 3d 3e 2e 31 bf c6 02 33 bf
       -0.004024458 0.08694025 -0.69211185 -0.69926107
000080 bd 12 28 bc 9d da cb 3e 15 45 6b 3f 1d 19 87 3e
       -0.010258374 0.39815226 0.91902286 0.26386347
000090 72 23 60 bf 20 ab 6c 3f d3 82 e6 be 70 de 3e bf
       -0.87554085 0.92448616 -0.45021686 -0.7455816
0000a0 80 30 dc be 4e 89 c3 bd 07 4d 4f bf 1f c0 2e be
       -0.43005753 -0.09547673 -0.8097691 -0.17065476
0000b0 d3 58 cd 3b 60 a5 92 3e 2d 3d f7 3e 66 dc c8 3e
       0.006266692 0.28641796 0.4828886 0.3923065
0000c0 c3 09 23 bf e7 13 a7 be aa be 6b 3d 99 1e 6f 3f
       -0.6368677 -0.32632372 0.05755488 0.93406063
0000d0 e1 df d9 3c f6 b0 48 3f d1 0a 44 bf 7a f0 83 bb
       0.026596012 0.7839502 -0.76579005 -0.00402647
0000e0 9a 11 49 3e 91 0f ab be e8 29 9f 3d fe 6b 42 bf
       0.1963562 -0.33410314 0.07771665 -0.75946033
0000f0 c0 cc 87 be 60 d4 b2 be 80 70 1a 3e 7d 0f b3 bd
       -0.265234 -0.34927654 0.15081978 -0.087431885

running_mean f4 [64]
000000 e6 b3 ab 41 2e 48 a5 41 75 ba 93 41 87 1d 86 41
       21.462841 20.660244 18.466043 16.764418
000010 48 6d 91 41 77 f1 93 41 b6 2d 6d 41 a6 ed 88 41
       18.17836 18.492903 14.82366 17.11604
000020 12 5d a7 41 23 28 95 41 e2 ae 89 41 39 36 9c 41
       20.920444 18.644598 17.210392 19.526476
000030 85 94 79 41 c0 f5 47 41 65 0a 93 41 16 86 9a 41
       15.59876 12.497498 18.380075 19.315472
000040 57 c3 a4 41 ce cd 92 41 12 08 a4 41 aa 47 8f 41
       20.59538 18.35049 20.50394 17.909992
000050 82 5f 89 41 6c 9f 7c 41 4d ec 89 41 a4 0d 6d 41
       17.171635 15.788921 17.240381 14.81583
000060 f7 2e 9a 41 e0 d2 98 41 a5 f9 88 41 32 c2 44 41
       19.272932 19.102966 17.121897 12.297411
000070 f1 bf ba 41 61 92 91 41 b5 a0 ac 41 82 d0 8b 41
       23.343721 18.196474 21.57847 17.47681
000080 59 ae 92 41 27 8b 95 41 d9 10 a1 41 f0 01 9c 41
       18.33513 18.692945 20.133226 19.500946
000090 2a 4e a0 41 74 a9 7f 41 9f ab 90 41 73 16 93 41
       20.038166 15.97887 18.0838 18.385962
0000a0 c7 22 a5 41 1b 05 93 41 6d b1 a3 41 12 4c 89 41
       20.641981 18.377493 20.461634 17.162144
0000b0 fe db 81 41 fd 76 8c 41 20 50 9b 41 fd 55 78 41
       16.232418 17.5581 19.414124 15.520993
0000c0 36 cb 7b 41 92 42 89 41 97 7f 99 41 21 f1 a3 41
       15.737112 17.157505 19.1873 20.492739
0000d0 ec fc a0 41 b7 f9 91 41 0b c3 91 41 b8 7e a8 41
       20.123497 18.246931 18.220236 21.061874
0000e0 73 ef a5 41 eb 25 90 41 76 67 94 41 aa 3a 5e 41
       20.741919 18.018515 18.550518 13.889322
0000f0 b7 60 83 41 f7 80 86 41 66 b2 9b 41 f2 a0 ae 41
       16.422224 16.812971 19.462109 21.828587

running_var f4 [64]
000000 8c be 3b 44 01 e8 3f 44 80 80 7a 44 fc 91 2b 44
       750.9773 767.62506 1002.0078 686.281
000010 68 72 5a 44 b0 df 2d 44 17 ef 0b 44 1a 7c 43 44
       873.7876 695.4951 559.7358 781.9391
000020 61 14 47 44 10 fd 23 44 a7 03 3e 44 d7 68 31 44
       796.3184 655.9541 760.05707 709.6381
000030 51 7f 1e 44 5c 5c 04 44 da f2 42 44 a9 43 81 44
       633.9893 529.4431 779.79456 1034.1144
000040 45 12 65 44 b0 8b 51 44 58 be 5f 44 27 17 2b 44
       916.28546 838.1826 894.9741 684.36176
000050 6a 9f 19 44 8e 7f 07 44 bf 16 66 44 09 50 e3 43
       614.49084 541.99304 920.3554 454.62527
000060 c1 0c 4a 44 d7 46 66 44 d6 8a 1a 44 70 d1 0d 44
       808.1993 921.1069 618.1693 567.27246
000070 fd 22 6a 44 7d cd 1b 44 28 9f 81 44 71 82 11 44
       936.5467 623.21075 1036.9736 582.03815
000080 bc f7 0c 44 9e b8 2e 44 02 a9 8d 44 1d 36 4e 44
       563.87085 698.88464 1133.2815 824.8455
000090 ba d8 5e 44 44 d2 05 44 58 94 95 44 7e 68 2a 44
       891.38635 535.2854 1196.6357 681.6327
0000a0 b6 d1 84 44 e1 eb 08 44 15 8e 54 44 b7 d3 30 44
       1062.5535 547.6856 850.22003 707.30804
0000b0 da 69 47 44 47 fd 37 44 4d 1c 32 44 f7 c6 1c 44
       797.65393 735.95746 712.4422 627.1088
0000c0 33 d5 0f 44 d0 aa 6d 44 1f 94 3b 44 6b 08 80 44
       575.33124 950.66895 750.3144 1024.2631
0000d0 88 a8 4c 44 9e a4 20 44 f1 54 35 44 b5 f1 86 44
       818.6333 642.57214 725.3272 1079.5533
0000e0 97 bc 23 44 e2 57 34 44 bb a7 43 44 32 db 12 44
       654.9467 721.37317 782.6208 587.4249
0000f0 0f 10 08 44 4b f5 19 44 02 d5 4e 44 28 9f 5b 44
       544.2509 615.8327 827.32825 878.4868

weight f4 [64, 64]
000000 8e 40 8a 3f 17 57 be bf 28 28 b9 bf 3b 43 4f 3e
       1.080095 -1.4870328 -1.446538 0.2024049
000010 0a 1e fd be 5b a4 80 bf c5 f3 a2 3f e3 26 a5 bf
       -0.4943698 -1.0050157 1.2730643 -1.2902492
000020 7c 9e ec bf 60 b8 d6 bf f7 99 ab 3f c8 82 30 3f
       -1.8485866 -1.6775017 1.3406361 0.68949556
000030 b5 96 40 be 48 39 1a be c0 9b d4 3f 04 12 b2 3e
       -0.1880749 -0.15060914 1.6610031 0.3477937
000040 5d 12 06 c0 5b 02 9b bf ff 2b fb be bc 98 21 3f
       -2.0948708 -1.2110094 -0.49057004 0.6312368
000050 a3 20 0d bd 2d e2 c6 3f e2 8c e8 bc 72 61 1a bf
       -0.034454953 1.5537773 -0.02838749 -0.6030494
000060 42 f2 d2 3e b3 72 2d 3f 19 2b 7b bf 70 2c ab 3f
       0.41200453 0.6775314 -0.98112637 1.3372936
000070 65 77 ac 3f 7c 08 85 3b 08 60 1f bf 5f 8b 3a bf
       1.3473936 0.0040598493 -0.6225591 -0.72868913
000080 34 25 ca bf 06 61 b6 bf eb c3 22 c0 ad fc 43 c0
       -1.5792603 -1.4248359 -2.543208 -3.062297
000090 bf 60 16 40 d7 4d 07 c0 68 eb db 3e b5 9c 5b 40
       2.349655 -2.114126 0.42953038 3.4314396
0000a0 80 8f 72 be 11 40 ef 3e e8 03 28 be 4f 0f dd bf
       -0.23687553 0.46728566 -0.1640774 -1.7270297
0000b0 a0 0c 32 bf 87 bf f5 be f2 b8 ce bf b9 5e 9a 3e
       -0.69550514 -0.47997686 -1.6150191 0.30150393
0000c0 89 31 20 40 34 6d 85 3f 15 09 54 3e fc 08 16 c0
       2.5030234 1.0423951 0.2070659 -2.3442984
0000d0 45 3d d6 3e 64 6e d1 be fb 3e 64 3e c4 ba d1 bf
       0.4184362 -0.40904534 0.2228965 -1.6385121
0000e0 f6 b5 33 bf 1e a3 c3 bf 2d ce ee be f0 8e a1 3e
       -0.70199525 -1.5284154 -0.46641675 0.31554365
0000f0 5f 29 ec 3d 3d 94 08 c0 6e ec 04 40 ea 86 e4 ba
       0.115313284 -2.1340477 2.0769305 -0.0017435227
000100 cf f1 14 bf 96 aa 0e 3f da d6 67 c0 62 d6 60 3f
       -0.5818147 0.55729043 -3.6224885 0.8782712
000110 30 7e ec bf fa bb 1b c0 cd 1f 2e be 04 62 a7 ba
       -1.8476009 -2.4333482 -0.17004319 -0.00127703
000120 a0 59 2f 3e 8d 96 6f 3e 3a d4 6d be 31 97 0c bf
       0.17124033 0.23397274 -0.2322549 -0.549182
000130 89 ab ef 3f cf 1f ec 3e 95 f8 39 3f cd 65 ac bf
       1.8724223 0.46118018 0.7264493 -1.3468567
000140 15 7b 5e 3e 6e 92 31 c0 1c 89 cd 3f a5 a9 4b bf
       0.2172664 -2.7745624 1.6057467 -0.7955573
000150 4f c4 b7 be cb 38 9d bf d3 5f 3b 40 6c c5 b7 bf
       -0.3589196 -1.2282957 2.9277236 -1.4357123
000160 0a f1 25 bf 04 a5 95 be ed b5 f5 3f 22 ce 75 3f
       -0.6482092 -0.2922746 1.9196144 0.9601766
000170 8f 71 04 3f 94 6b 95 3f 14 02 c2 be 21 4f b2 bf
       0.51735777 1.1673455 -0.3789221 -1.3930398
000180 b6 96 50 bf 79 5a 7c bf a4 68 4e be 96 2e 31 3e
       -0.81479967 -0.9857555 -0.20157105 0.17302927
000190 f7 4e 84 c0 9d 55 58 be 4c 5a 76 be b9 97 a8 bf
       -4.1346393 -0.21126409 -0.24057883 -1.3171302
0001a0 36 01 44 bf 4d 40 10 bf 72 7c d8 bf d8 71 96 3f
       -0.7656435 -0.56348115 -1.6912978 1.1753492
0001b0 30 19 97 3e ef 56 b1 3e 3a e5 0d 3f 36 aa c4 3f
       0.29511404 0.34636638 0.55427897 1.5364444
0001c0 01 13 87 bf 19 c8 4e bf 2e 5c 08 3e 09 ae 09 3f
       -1.0552675 -0.80774075 0.13316414 0.5378118
0001d0 3c 25 09 bf 7a b0 0b 3d 06 f8 64 3f 6c aa 30 c0
       -0.5357244 0.034103848 0.89440954 -2.7604017
0001e0 61 96 37 c0 88 53 2d 3e 23 95 5d bf 66 4c c2 3f
       -2.8685534 0.16926396 -0.8655569 1.5179565
0001f0 3b 89 c9 3d d1 c0 35 40 6b 7b 16 bf 43 66 bd 3e
       0.09840628 2.8398936 -0.5878207 0.36992082
000200 32 a4 30 bf 43 a2 c9 bf f0 3a f5 bf 8e 1f 23 3f
       -0.6900054 -1.5752643 -1.9158611 0.63720024
000210 87 0c cb bf f8 a0 e7 bf c0 31 e1 bf 90 25 4a c0
       -1.5863198 -1.8095999 -1.7593307 -3.1585426
000220 8c 31 45 bf ab 87 96 bf 17 fb 4c be 8a 98 29 3f
       -0.7702873 -1.1760153 -0.20017658 0.6624838
000230 bd 35 0a c0 46 8e a4 3f bd 63 a6 bf fa cc 35 bf
       -2.15953 1.2855918 -1.2999188 -0.71015894
000240 ef 65 48 3f 9f e2 18 bf ea ab 33 be 8f 00 d3 3f
       0.7828054 -0.59720796 -0.17546049 1.6484545
000250 a6 92 f9 3f a4 a2 ad 3f 36 c1 8e 3d 9d a2 25 40
       1.9497879 1.3565259 0.06970446 2.5880501
000260 01 1b 9e bf 9e ab 27 c0 12 96 61 bf a5 3d b6 3e
       -1.2351991 -2.6198497 -0.88119614 0.35593906
000270 d8 8a 71 3f aa b1 3c 3f 3d a3 cb 3f bf ca 81 3f
       0.94352484 0.73708594 1.5909191 1.0139998
000280 f0 86 9c 3d 69 e6 85 bf 93 06 86 bf 7e 34 89 3e
       0.07642925 -1.0460941 -1.0470756 0.2679786
000290 62 3a 50 bf ab a4 5e bf 5c 0d 07 3e 99 75 fe 3e
       -0.81339085 -0.86970013 0.1318869 0.49699095
0002a0 84 27 c7 3f ca 11 39 3d 0e 35 c3 bf a4 78 dc bf
       1.5558934 0.04518298 -1.5250566 -1.7224317
0002b0 07 59 7d 3f 33 ca 4f bf a2 af f9 bf e9 ae a4 3f
       0.9896397 -0.81167907 -1.9506724 1.2865878
0002c0 bd 1b 36 3d 02 46 88 bf a6 cf ea be c1 12 de 3e
       0.044460047 -1.0646365 -0.45861548 0.43373683
0002d0 f8 30 9a 3f 67 9d 29 bf 2c 89 64 3f 2d a6 98 3d
       1.2046194 -0.662558 0.8927181 0.074535705
0002e0 c1 50 e6 3d 77 63 7a bf 81 42 9e 3e 9f cf f2 bd
       0.11245871 -0.9780802 0.30910113 -0.11856007
0002f0 00 97 91 3f fe ef e8 be 53 88 fa 3c f5 a7 42 c0
       1.1374207 -0.454956 0.030582583 -3.0415013
000300 c7 7f 2e bf 82 3d 33 bf 2e db 83 bf df 8c a9 bf
       -0.6816372 -0.7001573 -1.0301263 -1.3246115
000310 46 df 5c be 39 b7 97 be 73 7f ac 3f 35 0d 1d 40
       -0.21569547 -0.29631975 1.3476394 2.453931
000320 ea 87 65 3f c8 cb 95 bf 52 89 29 bf ff b0 ab bf
       0.89660513 -1.1702814 -0.6622516 -1.341339
000330 13 5e 12 3e d0 7e 01 c0 d6 3a 22 3f 52 58 85 3f
       0.14293699 -2.023365 0.63371027 1.0417578
000340 f2 e7 69 c0 d8 f5 99 bf 71 5f 1f c0 6d 8f 9b bf
       -3.6547818 -1.202815 -2.4902003 -1.2153145
000350 cb 0a 4e be 94 b7 2b 3f 10 43 85 bc 5d d7 56 3e
       -0.20121305 0.67076993 -0.01626733 0.20980592
000360 d6 11 d5 3f b5 ce 8a be 29 98 d7 3d 36 71 6e 3e
       1.6646068 -0.2711083 0.10527069 0.23285374
000370 1d 9b 67 c0 8f 56 6f bf bd 6e 2c c0 c6 ef 9b 3f
       -3.6188424 -0.9349145 -2.694259 1.2182548
000380 64 e5 3b bf 5f 7a 24 bf 9a e6 99 3f 46 1d 2d 3d
       -0.733969 -0.64249223 1.2023499 0.042264245
000390 88 57 71 3f 20 35 37 bf d4 b4 09 be 61 5a f7 be
       0.9427419 -0.7156544 -0.13447887 -0.4831114
0003a0 b3 e4 c2 bf 06 7d 84 bf b8 4a 3d 3f 93 ff 9b be
       -1.5226043 -1.0350654 0.73942137 -0.30468425
0003b0 d4 d0 bf bf 05 b9 d1 bd 00 36 9c bd 22 05 2a c0
       -1.4985604 -0.10240368 -0.07627487 -2.6565633
0003c0 9a f8 a5 bf 8c e4 1a 3f 3f 1d a6 bf 75 33 01 c0
       -1.2966492 0.60504985 -1.2977675 -2.0187657
0003d0 08 96 9e bf 08 93 65 bf 56 42 bf bf e5 9f 52 3e
       -1.2389536 -0.89677477 -1.4942119 0.20568807
0003e0 75 1c 73 3e f3 24 c7 be fc c3 ae bf 62 6a bd be
       0.23741324 -0.38895378 -1.365356 -0.36995226
0003f0 84 54 db bf 3f 15 12 bf a4 8c 9f 3e 94 e8 17 bf
       -1.7135167 -0.5706367 0.31161988 -0.5933926

bias f4 [64]
000000 47 5c 31 40 eb 8d 84 3f 5d 5d 6a 3f 8b a6 41 40
       2.7712572 1.035581 0.9154871 3.02579
000010 2a 1e 6f 40 c9 fd 72 3f 05 ce 94 40 55 94 90 3f
       3.736216 0.94918495 4.650149 1.1295267
000020 84 3a 27 40 39 eb 38 40 2b 7a 24 3f d8 98 45 40
       2.6129465 2.8893569 0.64248914 3.0874538
000030 50 5c 0a 40 24 90 27 40 48 5e 45 be e8 84 8d 3f
       2.1618843 2.6181726 -0.19274247 1.1056185
000040 e4 f6 f4 3f 1e f1 8e 40 30 99 9c 40 2a 92 50 40
       1.9137845 4.4669333 4.8936996 3.2589211
000050 df da 43 3f f1 82 08 40 15 a3 3d 40 75 5d 78 40
       0.76505846 2.132992 2.9630787 3.8807042
000060 a0 48 91 40 8a 70 23 40 b6 38 45 40 4e 43 25 40
       4.5401154 2.5537438 3.0815864 2.582233
000070 9a ee 57 40 d1 6a 49 40 8f f6 85 3f e0 83 12 40
       3.373938 3.1471446 1.0465869 2.289299
000080 de 07 95 40 ed 08 54 3f de a8 06 40 b8 ad be be
       4.6572104 0.8282612 2.1040568 -0.37241912
000090 67 9c 3d 40 96 e1 95 3f 18 d3 52 40 42 ce 89 3e
       2.962671 1.1709468 3.2941341 0.26915175
0000a0 11 cf 31 40 85 b2 1d 3e 24 de 45 40 47 e8 98 3f
       2.7782633 0.15400131 3.0916834 1.1945885
0000b0 44 35 a9 40 d6 ef 46 40 5d a1 ec 3e ae 01 67 40
       5.287752 3.1083884 0.4621686 3.6094775
0000c0 1f f2 2f 40 08 e5 85 40 30 79 f5 3f 05 10 81 3f
       2.749153 4.184208 1.9177608 1.0083014
0000d0 a2 ce d3 3f e7 8a be 40 f7 bc ee 3f d3 9e 56 40
       1.6547434 5.954456 1.8651417 3.3534439
0000e0 9c 56 81 40 09 73 90 40 f0 e3 fe 3f dd f0 5f 40
       4.0418224 4.5140424 1.9913311 3.4990761
0000f0 b8 7f 81 40 31 02 eb 3f c1 9a b2 3f a9 b2 1c 40
       4.0468407 1.8360044 1.3953477 2.4484046

weight f4 [64]
000000 bf a2 1c 40 ef 60 12 40 51 b4 ba 3f 44 9e 06 40
       2.4474332 2.2871664 1.4586278 2.1034098
000010 45 cb 15 40 af 81 d0 3f ab d5 f2 3f 36 c4 f9 3f
       2.3405316 1.6289576 1.8971456 1.9513004
000020 2f 8a 0a 40 fb 48 dc 3f a4 8e f8 3f 0e 55 f3 3f
       2.164684 1.7209772 1.941853 1.9010332
000030 48 eb 16 40 3f ba 19 40 ac 1f 06 40 2c b9 fd 3f
       2.3581104 2.4019926 2.095683 1.9822135
000040 81 e6 0c 40 fc c2 16 40 bf 4c 03 40 c4 67 e8 3f
       2.2015688 2.355651 2.0515592 1.8156667
000050 c4 84 15 40 ec c8 ff 3f 27 90 12 40 62 39 df 3f
       2.3362284 1.9983191 2.2900484 1.7439387
000060 ba 6b 16 40 a6 09 21 40 d4 9a 06 40 d4 dc d8 3f
       2.350325 2.516214 2.1032 1.6942391
000070 bf a0 25 40 fd 62 00 40 9a 90 e0 3f be 03 11 40
       2.5879362 2.0060418 1.7544129 2.2658534
000080 21 da 21 40 75 4e cd 3f bf d3 1a 40 9c bf f7 3f
       2.5289385 1.6039568 2.419174 1.935535
000090 2a a1 16 40 3a 41 02 40 aa 90 ff 3f 9a d0 c6 3f
       2.3535867 2.035231 1.9966023 1.553241
0000a0 fa 0a e3 3f b8 35 e0 3f 7a 60 08 40 48 40 e8 3f
       1.7737725 1.7516394 2.1308885 1.8144617
0000b0 32 74 37 40 e1 e1 ff 3f 41 a4 c8 3f 8d c6 04 40
       2.866467 1.9990808 1.5675126 2.0746186
0000c0 8f 2b 07 40 a5 79 d2 3f 21 d3 b5 3f 4c ee 04 40
       2.1120336 1.6443373 1.4205056 2.0770445
0000d0 cb f1 32 40 ee de 1a 40 5b a3 e0 3f 47 6d fc 3f
       2.7960079 2.4198565 1.7549852 1.9720849
0000e0 30 67 cf 3f a7 95 19 40 24 ca f4 3f c0 61 1b 40
       1.6203365 2.399759 1.9124188 2.4278412
0000f0 02 43 cf 3f 89 fe 0a 40 e8 fd 0e 40 f0 52 a8 3f
       1.6192324 2.1717856 2.2342472 1.315031

bias f4 [64]
000000 63 cb 7b bf cb 03 8d be e4 1a ff be 4c 04 1c 3f
       -0.9835722 -0.27541956 -0.49825203 0.60944057
000010 34 8f cd 3e 31 94 cd 3e df 1b b2 3f 7f 1e 73 be
       0.40148318 0.40152124 1.3914756 -0.23742102
000020 09 15 ea bc 8f 5a ec 3d ad a2 63 bd 4c e2 44 3f
       -0.028574483 0.1154071 -0.05557506 0.769078
000030 04 35 d3 3e 27 68 16 3f 9b e5 06 3f 93 f0 53 bf
       0.41251385 0.58752674 0.526941 -0.8278896
000040 0b 6b 2f 3f 8d 01 09 3f a4 67 8f 3e 90 d8 66 3e
       0.6852271 0.5351799 0.2800876 0.2254355
000050 fd 6b 97 bd 87 37 80 3e da d3 99 bd 09 cb 63 3f
       -0.07393644 0.25042364 -0.075111106 0.8898168
000060 d0 08 cd 3e 0d 9f 62 be 25 1a 04 bd 29 31 45 bf
       0.40045786 -0.22130986 -0.032251496 -0.7702814
000070 02 cc b3 3e dd 2d 12 3f ac fe 77 3f 70 b3 29 be
       0.35116583 0.5710123 0.96872973 -0.16572356
000080 06 fc 32 3f cf 11 32 bf 89 1a a3 bd 50 e9 46 3f
       0.6991581 -0.69558424 -0.079640456 0.77699757
000090 a9 1d 8e 3e 1b 22 8d be 9a b8 fa 3e ef 39 c9 3d
       0.27757004 -0.27565083 0.48968965 0.09825503
0000a0 c2 65 54 3f 4b ef d3 3c 90 fb 94 3e 77 dd 11 3d
       0.8296777 0.02587094 0.29098177 0.035611596
0000b0 7d 18 3e be 35 57 7d 3f ba c8 09 3f e4 83 0d 3e
       -0.18564029 0.9896119 0.5382191 0.13819844
0000c0 04 11 58 3f 55 6c 1b bf 6f c7 fa ba 3c 07 d6 be
       0.84400964 -0.60712177 -0.0019132922 -0.41802394
0000d0 a4 59 0d bc 85 99 ec 3d a1 95 52 be 52 4b 89 3d
       -0.008627329 0.11552719 -0.20564891 0.06703819
0000e0 51 43 07 3f d9 58 b6 3e 79 4b 28 bf 19 d3 cf bd
       0.5283709 0.3561466 -0.6574016 -0.101476856
0000f0 b6 97 29 3f aa 11 4e 3e 72 3a 27 be 7d c1 0d 3d
       0.6624712 0.20123926 -0.16330889 0.034608353

running_mean f4 [64]
000000 92 0a a6 41 33 4a c4 41 d5 72 a3 41 45 06 88 41
       20.755161 24.53623 20.43107 17.003061
000010 c4 82 b0 41 55 98 78 41 c2 28 e2 41 d9 3b fb 41
       22.06385 15.53719 28.269901 31.404222
000020 92 b5 e5 41 e0 3c b2 41 24 4d 6d 41 6f 4f f4 41
       28.713657 22.279724 14.831333 30.538786
000030 93 06 bc 41 d6 d6 c9 41 5e 54 b3 41 86 4f 79 41
       23.50321 25.2299 22.416195 15.581915
000040 88 99 b1 41 4c 11 cb 41 f1 00 aa 41 96 7f c6 41
       22.199966 25.383446 21.25046 24.812298
000050 7f 32 99 41 5b 94 e0 41 a2 12 b2 41 fd da b1 41
       19.149656 28.07244 22.259098 22.231928
000060 1a 86 d5 41 42 59 a8 41 b8 98 a4 41 60 9e b5 41
       26.69048 21.043583 20.57457 22.702332
000070 65 8d d2 41 a1 92 de 41 7e 30 d0 41 b4 f9 a0 41
       26.31904 27.821596 26.023678 20.121925
000080 b3 b6 d2 41 ba 7b 82 41 08 d1 d6 41 ed 5e 5f 41
       26.339209 16.310413 26.852066 13.960675
000090 05 69 c4 41 86 0c 88 41 c5 06 f4 41 29 b5 80 41
       24.55128 17.006115 30.503305 16.088457
0000a0 e4 20 01 42 47 af 81 41 74 77 c4 41 78 6f b5 41
       32.28212 16.210585 24.558327 22.679428
0000b0 5c e2 d1 41 79 2e ec 41 b2 42 91 41 ae 4b 0b 42
       26.235527 29.522692 18.157566 34.823906
0000c0 dd 4b 09 42 a2 aa bb 41 4a 8a ce 41 5f c4 a0 41
       34.324085 23.458317 25.817524 20.095884
0000d0 d8 8e 80 41 91 17 dc 41 7e 6a ac 41 62 6f bc 41
       16.069748 27.511507 21.551998 23.554386
0000e0 21 6e df 41 c1 e3 b7 41 ac 90 88 41 5f 3a a6 41
       27.928774 22.986208 17.07064 20.778502
0000f0 8b c5 b4 41 81 2d ef 41 7b 60 a5 41 f6 43 e9 41
       22.596457 29.897219 20.67211 29.158184

running_var f4 [64]
000000 fa d8 93 44 c9 81 8c 44 b1 c9 4e 44 1f 44 f0 43
       1182.7805 1124.0558 827.1514 480.5322
000010 b5 e3 36 44 32 ae 61 44 47 7f 40 44 55 06 15 45
       731.5579 902.7218 769.9887 2384.3958
000020 df 3c c1 44 2e 6b 68 44 f7 75 05 44 36 b4 c7 44
       1545.9022 929.6747 533.8432 1597.6316
000030 7a c1 a2 44 6c bd e6 44 45 fb 8d 44 ff 0a 37 44
       1302.0461 1845.9194 1135.8522 732.1718
000040 af 9a 6e 44 e1 73 8f 44 2a 3b 5e 44 e0 43 a3 44
       954.41693 1147.6212 888.92444 1306.1211
000050 87 b8 6d 44 61 0b d8 44 86 3d 89 44 40 42 72 44
       950.88324 1728.3556 1097.9226 969.03516
000060 b6 90 83 44 87 e4 64 44 e6 77 40 44 eb f8 69 44
       1052.5222 915.57074 769.8734 935.88934
000070 21 e3 a0 44 eb 3a 9b 44 83 31 ae 44 78 a9 70 44
       1287.0978 1241.8412 1393.5472 962.64795
000080 8e 7b 92 44 8a be 7c 44 80 05 bf 44 fd 9b 3b 44
       1171.8611 1010.9772 1528.1719 750.4373
000090 41 f7 d0 44 89 af 60 44 4a ae c6 44 56 c0 55 44
       1671.7267 898.74274 1589.4465 855.00525
0000a0 6d fa 0c 45 4a be 91 44 64 30 b6 44 5b f9 b6 44
       2255.6516 1165.9465 1457.5122 1463.7924
0000b0 90 a4 47 44 c4 9b bb 44 f6 a9 82 44 e5 95 b0 44
       798.5713 1500.8677 1045.3113 1412.6842
0000c0 e0 44 10 45 6a 4f 7c 44 93 95 bb 44 71 88 5c 44
       2308.3047 1009.24084 1500.6742 882.1319
0000d0 ff 4c 86 44 35 54 4a 44 42 37 7b 44 2a 94 7d 44
       1074.4061 809.31573 1004.8634 1014.31506
0000e0 e4 cf b3 44 20 ab 6f 44 2f 03 4d 44 a3 44 9a 44
       1438.4966 958.6738 820.04974 1234.1449
0000f0 e0 71 24 44 4f 4a e5 44 ae 07 72 44 e1 dd 9d 44
       657.7793 1834.3221 968.12 1262.9337
