outputs/models/deepsurv.pt (torch, 81261 bytes, 25 tensors)

weight f4 [64, 56]
0.13876505 0.5511592 -0.48768196 -1.4311669 0.51023054 -0.43011904 4.5180445 -4.0265775
0.663839 -1.023052 0.7999064 -0.38413435 2.0810103 -0.13752663 -0.6999755 -0.13986361
-0.26044822 -0.5113716 0.2299773 -0.66985667 0.6620399 -1.0873177 -0.2692533 -0.6948963
0.21737161 -2.1025548 -2.9906647 -0.2271934 2.036974 -0.52133906 -0.14016406 0.5073534
0.19781749 1.330412 1.7455788 1.4787481 -0.13042931 0.09675455 0.7100937 0.17659956
-0.6869967 0.31770897 0.014039623 0.8595719 -1.3141818 0.80670226 0.5304423 1.3475347
1.0321068 -0.6076604 0.46900636 -0.2379107 -2.2928746 -0.41817465 -0.20301422 -0.7772192
-0.17276573 0.83539176 0.16785796 0.15347096 0.14846125 -0.48577133 -2.7159605 0.9812404
-2.2511728 0.28214118 -0.1463108 1.0740093 0.69478613 -0.7945958 0.120581456 -0.5689899
-4.461232 -1.9892851 2.8878448 -0.3549323 -1.7609413 -0.58526355 -2.3207142 -2.1866527
-0.58060205 -1.564754 0.8725402 -3.0709417 -1.9958949 -0.5666307 0.505305 -0.69136256
1.1126308 -1.46981 -0.8189343 0.037998095 0.08256896 1.5738493 -1.1348808 0.2353878
0.32116365 2.515623 -0.8760834 -2.5883784 -0.48914424 -2.3604476 0.012381641 -0.23731631
0.6155792 -0.03650516 -0.21842849 0.425735 1.0938553 0.012696605 -0.13178198 0.60041684
1.0290694 0.5850961 0.32198498 -0.050188936 1.4943225 0.3525658 1.7025818 1.1848993
0.67390907 -0.93834394 0.8417632 -1.9038744 -0.42943534 -1.0160886 -0.56860507 -1.1294293
2.8062525 -0.08616192 -3.3090806 -0.47185776 0.35874307 -0.73587 0.19558036 0.47657537
0.7925841 2.2251174 -0.38038108 1.8334305 1.9739932 -0.1741575 0.019887898 -0.21283749
0.07887577 1.0396177 -1.2833717 1.1203786 -0.14243808 0.33350885 -1.159054 1.9798926
0.5225517 -0.3852298 -0.4865033 0.8371241 -2.2866094 0.9117001 -0.8731418 1.1942956
0.61694634 0.8997203 0.8893606 -1.1435081 -1.5725299 0.53431493 0.035281952 1.5917501
-1.1097425 0.18329276 -0.7808152 1.5838736 0.29696843 2.5526204 -0.26754236 0.37642866
1.3661944 -0.49112746 1.2520121 0.1070212 0.96179825 0.54625887 0.019372743 0.63370365
-0.4294525 -0.48339635 -5.7809906 -0.828552 -0.7366042 0.067937545 0.39505583 1.1293467
-2.1928763 0.06830677 2.691544 -3.9634497 0.12472707 -0.36332324 0.8930585 0.20319603
0.7123634 -0.01581992 0.024773188 1.3551698 -0.7215032 0.9237258 1.4432945 -0.32882234
0.9532942 -0.022037849 0.7251494 -2.3695383 1.2269852 1.7959002 0.25883368 0.56606185
-2.3481276 -1.3833156 -0.592763 0.2737156 -0.60499746 0.7002609 0.6046347 -1.2018718
-1.1282157 -0.080883384 -0.13240412 -1.8855208 -0.40947098 -0.8539546 3.2489886 4.967749
1.8561907 0.23299152 0.04618666 0.57283235 -0.28062272 1.8239168 0.13796952 -0.5505813
2.546256 0.63591385 2.839837 0.66484004 0.2903247 0.94969624 -0.6760825 -0.53956354
0.12442797 -0.76098686 0.6550983 -1.7267928 0.42503184 0.5024203 0.22027366 -1.9578496
00000000: 6d18 0e3e c518 0d3f 73b1 f9be 7a30 b7bf
00000010: 789e 023f 9038 dcbe d293 9040 b9d9 80c0
00000020: 5af1 293f 5ef3 82bf aac6 4c3f 42ad c4be
00000030: 462f 0540 c8d3 0cbe 9831 33bf 6838 0fbe
00000040: 7859 85be 40e9 02bf 2b7f 6b3e ba7b 2bbf
00000050: 727b 293f 3a2d 8bbf 92db 89be b9e4 31bf
00000060: aa96 5e3e 4290 06c0 0d67 3fc0 63a5 68be
00000070: c85d 0240 7a76 05bf 2b87 0fbe eae1 013f
00000080: ab90 4a3e f14a aa3f 206f df3f 9e47 bd3f
00000090: 438f 05be 4027 c63d b3c8 353f 84d6 343e
000000a0: 04df 2fbf c0aa a23e 7206 663c e70c 5c3f
000000b0: 1c37 a8bf 0a84 4e3f 11cb 073f 047c ac3f
000000c0: 131c 843f a28f 1bbf 9a21 f03e dd9e 73be
000000d0: 75be 12c0 fd1a d6be f6e2 4fbe d6f7 46bf
000000e0: 80e9 30be 3cdc 553f f5e2 2b3e 7e27 1d3e
000000f0: 3a06 183e 05b7 f8be 4cd2 2dc0 9232 7b3f
00000100: 3713 10c0 cf74 903e 80d2 15be 2379 893f
00000110: 81dd 313f a16a 4bbf 69f3 f63d 52a9 11bf
00000120: 6ac2 8ec0 e5a0 febf 73d2 3840 b0b9 b5be
00000130: 8666 e1bf d5d3 15bf 9586 14c0 1ef2 0bc0
00000140: 56a2 14bf dc49 c8bf cb5e 5f3f 4f8a 44c0
00000150: 7c79 ffbf b60e 11bf ab5b 013f 23fd 30bf
00000160: b06a 8e3f bc22 bcbf aea5 51bf e4a3 1b3d
00000170: ea19 a93d e573 c93f c643 91bf 8009 713e
00000180: 906f a43e f8ff 2040 0047 60bf fea7 25c0
00000190: 1d71 fabe 9311 17c0 5edc 4a3c 0c03 73be
000001a0: 9996 1d3f 6f86 15bd b8ab 5fbe f0f9 d93e
000001b0: 7303 8c3f 6c05 503c dbf1 06be ebb4 193f
000001c0: 8cb8 833f dcc8 153f 37db a43e ea92 4dbd
000001d0: f645 bf3f 8183 b43e 33ee d93f c8aa 973f
000001e0: 4e85 2c3f 4f37 70bf cb7d 573f 28b2 f3bf
000001f0: f3de dbbe 310f 82bf 1a90 11bf 2491 90bf
00000200: a499 3340 a975 b0bd fac7 53c0 5797 f1be
00000210: 2cad b73e fa61 3cbf 3846 483e b001 f43e
00000220: cbe6 4a3f 5368 0e40 4fc1 c2be daad ea3f
00000230: cfab fc3f 5856 32be f2eb a23c 12f2 59be
00000240: 9f89 a13d 3112 853f 8645 a4bf 9168 8f3f
00000250: 4adb 11be acc1 aa3e e25b 94bf 1f6d fd3f
00000260: f3c5 053f d73c c5be f616 f9be c44d 563f
00000270: cf57 12c0 2e65 693f 3986 5fbf aede 983f
00000280: 32f0 1d3f 1254 663f 23ad 633f 795e 92bf
00000290: a948 c9bf ddc8 083f cf83 103d 78be cb3f
000002a0: 0b0c 8ebf 19b1 3b3e 81e3 47bf 5fbc ca3f
000002b0: 3f0c 983e 225e 2340 50fb 88be 42bb c03e
000002c0: 75df ae3f 0f75 fbbe ef41 a03f ee2d db3d
000002d0: 6938 763f 9fd7 0b3f 96b3 9e3c 673a 223f
000002e0: 33e1 dbbe ba7f f7be e0fd b8c0 fc1b 54bf
000002f0: 1892 3cbf d722 8b3d c244 ca3e 6f8e 903f
00000300: 1658 0cc0 6be4 8b3d 4242 2c40 29a9 7dc0
00000310: e870 ff3d 8105 babe 7b9f 643f 9f12 503e
00000320: 735d 363f c798 81bc 24f1 ca3c 3476 ad3f
00000330: 6fb4 38bf 4b79 6c3f e0bd b83f 675b a8be
00000340: 170b 743f b888 b4bc 64a3 393f 84a6 17c0
00000350: da0d 9d3f 0fe0 e53f d985 843e 6ee9 103f
00000360: b947 16c0 7c10 b1bf 51bf 17bf 7324 8c3e
00000370: 1de1 1abf 4c44 333f 57c9 1a3f efd6 99bf
00000380: 5f69 90bf 30a6 a5bd f294 07be bf58 f1bf
00000390: 2ea6 d1be c59c 5abf 6eef 4f40 cdf7 9e40
000003a0: a897 ed3f 5495 6e3e 392e 3d3d 24a5 123f
000003b0: c8ad 8fbe 1b76 e93f e247 0d3e e5f2 0cbf
000003c0: dcf5 2240 40cb 223f e4bf 3540 f532 2a3f
000003d0: 70a5 943e 4b1f 733f be13 2dbf d620 0abf
000003e0: 17d4 fe3d 09d0 42bf 86b4 273f 8c07 ddbf
000003f0: c69d d93e 9e9e 003f 6b8f 613e d19a fabf

bias f4 [64]
-4.3325987 -0.85268736 -3.5140674 -2.6029432 -4.5929494 -2.8444755 -1.9149848 -2.7357795
-1.4936342 -3.7311292 -1.8052073 -0.46988147 -4.2690115 -5.1860566 -2.9974809 -5.1550255
-2.1326902 -1.5569828 -2.23407 -4.3470826 -3.4694958 -4.4452515 -3.3593206 -4.1971154
0.37688848 -1.2511635 -1.4628657 -1.2486067 -3.7063935 -0.8548429 -2.5095224 -4.1026473
-3.1876006 -5.213759 -0.9707263 -2.1055992 -3.8972833 -1.8849319 -3.6335907 -0.7738779
-2.790661 -4.2620654 -4.1194158 -3.6856766 -4.1952605 0.69898516 -5.7685366 -1.4123961
-1.9203689 -0.4180997 -3.037451 -3.0895314 -3.8112586 -3.6647792 -1.3360014 -1.9988302
-1.8007783 -4.3208275 -3.5237787 -0.24755295 0.86339736 -2.0485656 -1.4425066 -3.4444098
00000000: a6a4 8ac0 b849 5abf 7be6 60c0 9f96 26c0
00000010: 71f9 92c0 e30b 36c0 391e f5bf 0317 2fc0
00000020: 682f bfbf d2ca 6ec0 0811 e7bf 4e94 f0be
00000030: be9b 88c0 2df4 a5c0 bad6 3fc0 f8f5 a4c0
00000040: ff7d 08c0 364b c7bf 01fb 0ec0 4d1b 8bc0
00000050: 380c 5ec0 803f 8ec0 1cff 56c0 c54e 86c0
00000060: 87f7 c03e 2026 a0bf 2f3f bbbf 58d2 9fbf
00000070: 8d35 6dc0 fcd6 5abf 049c 20c0 e348 83c0
00000080: a601 4cc0 1dd7 a6c0 8581 78bf 23c2 06c0
00000090: 176d 79c0 7345 f1bf c08c 68c0 dd1c 46bf
000000a0: 319a 32c0 d762 88c0 41d2 83c0 20e2 6bc0
000000b0: 933f 86c0 b1f0 323f da97 b8c0 65c9 b4bf
000000c0: a6ce f5bf 2a11 d6be 9965 42c0 e2ba 45c0
000000d0: a9eb 73c0 be8b 6ac0 1802 abbf abd9 ffbf
000000e0: e77f e6bf 3844 8ac0 9785 61c0 857e 7dbe
000000f0: 9c07 5d3f b31b 03c0 0ea4 b8bf 3671 5cc0

weight f4 [64]
1.9220148 2.138295 1.7503675 3.168195 2.595319 2.0058284 2.9526663 1.754901
3.0827715 2.8642056 1.4977015 2.1999462 2.6033547 1.6034418 2.420687 2.3978026
1.6524788 1.3719654 2.2674174 2.859428 2.1943383 1.5360451 2.0945811 2.414992
1.7792311 1.4695386 2.4284852 1.598562 2.0657077 1.7182221 1.6590381 1.7879194
1.784701 3.0581334 -0.99092734 1.7806507 2.002093 1.9929925 2.739314 1.4014955
2.2930923 2.897093 3.0121856 2.5385952 2.4903224 2.3231301 2.4477034 3.1591372
2.1831605 0.8181968 2.386366 1.6095666 3.0128353 1.7027596 2.6305833 1.5625428
0.66735786 2.02424 2.1421635 1.9577568 2.2690496 1.572747 1.6370012 1.6192734
00000000: 9504 f63f d3d9 0840 0b0c e03f b5c3 4a40
00000010: b519 2640 7e5f 0040 7cf8 3c40 99a0 e03f
00000020: 214c 4540 254f 3740 afb4 bf3f ebcb 0c40
00000030: 5d9d 2640 953d cd3f 89ec 1a40 9975 1940
00000040: 6d84 d33f 909c af3f 5e1d 1140 de00 3740
00000050: 0a70 0c40 209d c43f 9e0d 0640 3b8f 1a40
00000060: d8bd e33f d719 bc3f 4d6c 1b40 ae9d cc3f
00000070: 8e34 0440 b4ee db3f 5c5b d43f 8bda e43f
00000080: 1571 e43f 75b8 4340 6aad 7dbf 5dec e33f
00000090: 4b22 0040 611a ff3f ec50 2f40 3464 b33f
000000a0: 06c2 1240 f969 3940 a6c7 4040 5878 2240
000000b0: 7161 1f40 2aae 1440 2ca7 1c40 4e2f 4a40
000000c0: e7b8 0b40 5875 513f 38ba 1840 4706 ce3f
000000d0: 4bd2 4040 07f4 d93f 7a5b 2840 6701 c83f
000000e0: f7d7 2a3f 268d 0140 3519 0940 c697 fa3f
000000f0: 1c38 1140 c64f c93f 4189 d13f 5a44 cf3f

bias f4 [64]
-0.3290369 -0.110207945 -0.2418938 0.9801121 -0.15422063 -0.5476321 0.64738774 0.14820845
0.65797675 0.011816951 0.24127492 0.27332118 0.39583525 -0.26249316 0.26006117 -0.9769384
0.0073271375 0.95823395 0.08441512 0.3169941 0.366733 0.15496276 -0.2269394 0.3327643
0.49322152 -0.4849825 0.0056762155 -0.3618919 0.41685247 -0.08954865 -0.13174868 0.1423347
-0.25516942 0.393912 -0.49258113 -0.19365449 0.14097504 0.12026413 0.73497134 -0.5938459
0.6332169 0.5409111 0.71433794 -0.22746573 0.9739477 0.7741671 -0.087490655 1.2031279
-0.9469009 0.69989616 -0.3901615 -0.04756177 0.49904025 0.12413462 -0.13170731 -1.2384026
-0.11741683 0.20695615 0.012889074 0.2899447 0.5759126 -0.06332847 0.2838585 -0.30720186
00000000: 8677 a8be b4b4 e1bd 02b3 77be a0e8 7a3f
00000010: 03ec 1dbe 9e31 0cbf 34bb 253f f5c3 173e
00000020: 2a71 283f e39b 413c c610 773e c1f0 8b3e
00000030: ebaa ca3e 8165 86be bd26 853e a318 7abf
00000040: 7c18 f03b d24e 753f d6e1 ac3d 0d4d a23e
00000050: 6ec4 bb3e 8fae 1e3e cd62 68be 1560 aa3e
00000060: 8887 fc3e a04f f8be 8cff b93b e549 b9be
00000070: b06d d53e 4865 b7bd 20e9 06be 30c0 113e
00000080: 91a5 82be d5ae c93e 9833 fcbe 5d4d 46be
00000090: c35b 103e 0a4d f63d 1527 3c3f 4906 18bf
000000a0: 811a 223f 2679 0a3f dade 363f c7ec 68be
000000b0: a354 793f d12f 463f 4d2e b3bd 1800 9a3f
000000c0: 1968 72bf 652c 333f 40c3 c7be 21d0 42bd
000000d0: 3482 ff3e 4b3a fe3d 48de 06be fa83 9ebf
000000e0: 3c78 f0bd 50ec 533e b22c 533c a273 943e
000000f0: 026f 133f 5bb2 81bd e755 913e 9049 9dbe

running_mean f4 [64]
2.057923 4.255435 1.998024 3.2987742 1.6988895 2.93731 3.349051 2.7535079
3.2994936 2.0297894 2.9281135 4.3599606 2.397929 2.0430696 2.7084706 1.8938315
2.9849036 2.8100255 3.2085404 2.3515346 2.1722922 1.7332891 2.3281572 1.9475136
4.938732 2.826059 4.338444 3.5546095 1.880842 3.1585443 2.2298772 1.584288
2.5511503 1.9658848 3.267027 2.9144144 2.552308 2.969633 2.3098376 3.9738142
3.0257225 2.0337954 2.2620296 2.3018804 2.1163454 5.2332735 1.224145 3.6178405
2.8302405 3.5796027 2.5063465 2.6990898 2.6836112 2.051926 4.1194725 2.496208
3.764524 1.9433179 2.5521665 4.5344152 4.584185 3.8389604 4.60174 2.2536857
00000000: 03b5 0340 862c 8840 40bf ff3f 1e1f 5340
00000010: 3675 d93f e3fc 3b40 da56 5640 7939 3040
00000020: e72a 5340 12e8 0140 3666 3b40 cc84 8b40
00000030: ab77 1940 a7c1 0240 9557 2d40 1269 f23f
00000040: a908 3f40 75d7 3340 ba58 4d40 8b7f 1640
00000050: d606 0b40 6bdc dd3f 8700 1540 2048 f93f
00000060: 180a 9e40 27de 3440 89d4 8a40 b97e 6340
00000070: 6ebf f03f 9725 4a40 4fb6 0e40 f3c9 ca3f
00000080: 0c46 2340 1da2 fb3f f816 5140 c485 3a40
00000090: 0459 2340 780e 3e40 61d4 1340 f952 7e40
000000a0: 70a5 4140 b429 0240 18c5 1040 0252 1340
000000b0: 3472 0740 fa76 a740 c9b0 9c3f b38a 6740
000000c0: a922 3540 3618 6540 fb67 2040 e3bd 2c40
000000d0: 49c0 2b40 c152 0340 b8d2 8340 dfc1 1f40
000000e0: f6ed 7040 a4be f83f b256 2340 ee19 9140
000000f0: a5b1 9240 87b1 7540 7441 9340 633c 1040

running_var f4 [64]
15.96624 35.57474 16.9013 34.53006 17.758926 22.953508 33.058743 21.059328
26.13872 15.579776 30.10642 44.37864 16.180006 20.394707 18.031746 17.807058
32.166065 20.550701 20.659779 15.372017 13.901165 10.25515 17.36823 15.69187
39.19289 21.833864 32.649574 32.09176 15.264629 29.828758 17.937368 13.45461
20.742535 17.841516 25.161556 34.16576 31.518217 25.028027 15.461778 37.39373
23.67346 16.535887 18.173868 16.068127 19.333061 33.894268 7.387109 36.030697
29.706919 28.847273 15.529324 23.607159 16.960217 20.350105 54.861668 23.921667
57.89319 12.00456 19.300575 30.86224 31.072216 45.77473 57.13235 17.702768
00000000: b875 7f41 894c 0e42 dd35 8741 c81e 0a42
00000010: 4812 8e41 c9a0 b741 273c 0442 8179 a841
00000020: 191c d141 c346 7941 f3d9 f041 ba83 3142
00000030: a770 8141 5c28 a341 0441 9041 db74 8e41
00000040: 0daa 0042 d667 a441 3a47 a541 c8f3 7541
00000050: 2c6b 5e41 1815 2441 23f2 8a41 e611 7b41
00000060: 85c5 1c42 c1ab ae41 2a99 0242 f65d 0042
00000070: ec3b 7441 4ca1 ee41 bb7f 8f41 1546 5741
00000080: b6f0 a541 6dbb 8e41 de4a c941 bda9 0842
00000090: 4f25 fc41 6639 c841 7163 7741 2e93 1542
000000a0: 3f63 bd41 7f49 8441 1564 9141 868b 8041
000000b0: 1caa 9a41 bb93 0742 3263 ec40 6f1f 1042
000000c0: c5a7 ed41 37c7 e641 1c78 7841 76db bc41
000000d0: 86ae 8741 04cd a241 5972 5b42 935f bf41
000000e0: a092 6742 ae12 4041 9467 9a41 dee5 f641
000000f0: e693 f841 5319 3742 8787 6442 459f 8d41

weight f4 [64, 64]
-0.102234654 0.9312447 0.0023243267 -0.2140912 1.051905 -0.10070621 0.1210328 -0.39537874
-1.1357504 -0.585219 -0.052426387 -0.36955675 1.6204613 -1.3767751 0.73755074 -1.1773362
1.3392 0.64622325 -0.47476363 2.4927907 -0.4907963 0.4448906 2.1283166 1.2973839
1.2558283 -0.39155337 0.3922148 2.461163 -0.28311098 0.8434535 -0.8125624 0.8822259
0.6502711 0.8252436 -1.9505112 0.71331865 2.2173238 0.816201 1.782295 0.80665016
1.9242162 1.8399303 1.1642542 -1.2074375 -0.61580706 1.6630185 -0.8779851 1.877288
1.8081955 0.77013737 0.7611182 -1.3108891 2.7919018 0.49120876 -2.910772 -0.58484924
1.685926 0.6003785 -1.1973845 1.2295727 1.9559414 -0.10928143 -0.23093371 0.9681836
0.51259476 1.1125631 -0.41269696 0.07129828 1.2732692 0.3095612 1.4800439 -0.4775182
0.29295844 0.11294724 0.16778886 0.1920601 1.467069 -0.97516114 0.51710117 -1.7698859
0.3287002 0.87578684 1.4861248 3.5118082 -0.4792771 1.5216134 0.1416344 2.120281
-0.18954292 0.56488234 0.9203576 1.4835281 0.34483755 0.57450676 2.8923864 0.26677316
1.3578047 -0.32045582 -3.24155 -1.8038894 0.940232 -0.3918606 0.5804049 1.5440638
1.9920331 2.6907039 1.8862793 -0.7246462 0.42013636 0.45152515 -0.41204256 2.3359149
-1.6620069 0.5592021 1.2360362 -1.7959359 1.3333762 -0.2202102 -1.3617154 -0.96395326
0.063052654 1.5565951 -0.48297814 0.67757094 1.3413453 -0.82189274 -0.88491565 -1.1661037
-0.3245476 0.6650544 -0.21498662 0.45332035 -1.3239453 -0.15385558 1.1090401 -1.2466992
1.3706063 1.606569 -1.199944 -0.04383995 -3.3605266 -2.5013793 -0.67601985 1.7900491
1.5083604 0.724828 1.3549157 -1.0405968 1.7454939 0.7091069 1.4629668 -0.047742248
0.5892803 0.0047566146 0.5134006 -1.0803447 -0.1434078 -0.59476817 -1.5224055 0.7214019
-0.81015736 -1.3566374 1.9779696 -2.7373626 -0.29344764 1.2113127 -0.65023357 -1.888618
-1.4863172 -3.7681985 -0.13323134 0.32282215 1.7565099 2.1896265 -0.934841 1.324519
-2.2863815 -0.045272317 -0.61497045 -0.21170445 -0.8961053 1.751902 1.1072762 0.55913824
0.86892855 -2.98598 -0.75964576 0.11705642 0.85626006 -0.84367216 0.55523425 0.05409127
0.1694586 -1.1546168 -2.7143211 -2.9359398 -1.1963304 1.545799 0.35039902 -2.4637601
0.12297775 0.033030044 -1.1798326 0.38224384 -1.9973586 0.05277972 0.83179706 -1.8272654
0.5400319 2.57987 0.4226417 -2.0822947 1.0809742 0.6874793 -1.3705106 -0.0039191684
1.3331054 -2.1038733 -0.9810142 0.47665054 0.9069273 0.27297112 -0.04588856 0.6672493
-1.9231104 -1.8857975 -0.26535133 -3.0505898 -2.4329567 -0.38783717 -1.7040564 0.27720216
-1.4414155 -2.1086557 -1.3861878 1.7125429 0.05547649 1.203651 0.5825137 -0.19226252
-0.58212304 0.5112605 -0.40961075 0.24492972 -1.8325096 -0.6913262 -0.7346176 0.23196267
-1.5426091 -1.1570779 -3.1732044 -0.6193638 -0.37303323 0.5643641 -2.0475533 -0.7681537
00000000: 6760 d1bd 0d66 6e3f bb53 183b b93a 5bbe
00000010: d3a4 863f 0f3f cebd 0be0 f73d 156f cabe
00000020: 4560 91bf ead0 15bf 0dbd 56bd 8b36 bdbe
00000030: 476b cf3f 2b3a b0bf 20d0 3c3f f4b2 96bf
00000040: e86a ab3f e36e 253f 3814 f3be e289 1f40
00000050: a749 fbbe b3c8 e33e 5736 0840 ad10 a63f
00000060: fbbe a03f af79 c8be 61d0 c83e b283 1d40
00000070: ecf3 90be 92ec 573f 1704 50bf 8ed9 613f
00000080: 2b78 263f 2a43 533f 5aaa f9bf 0d9c 363f
00000090: a2e8 0d40 8cf2 503f 3e22 e43f a080 4e3f
000000a0: b74c f63f d682 eb3f 4806 953f 508d 9abf
000000b0: 88a5 1dbf cadd d43f a2c3 60bf f94a f03f
000000c0: f372 e73f b927 453f a4d8 423f 37cb a7bf
000000d0: 85ae 3240 b77f fb3e 174a 3ac0 aeb8 15bf
000000e0: 6ccc d73f 68b2 193f e543 99bf a362 9d3f
000000f0: 4a5c fa3f f1ce dfbd e379 6cbe e1da 773f
00000100: 6939 033f 7868 8e3f 044d d3be d504 923d
00000110: 7cfa a23f ce7e 9e3e 1472 bd3f 447d f4be
00000120: a6fe 953e e250 e73d d8d0 2b3e 67ab 443e
00000130: ebc8 bb3f 29a4 79bf be60 043f 9f8b e2bf
00000140: 654b a83e 9133 603f 5639 be3f 77c1 6040
00000150: cf63 f5be 3ac4 c23f 9c08 113e afb2 0740
00000160: 8a17 42be 219c 103f 8e9c 6b3f 40e4 bd3f
00000170: 8c8e b03e e012 133f dc1c 3940 7e96 883e
00000180: 8bcc ad3f c912 a4be 8e75 4fc0 d9e5 e6bf
00000190: 0bb3 703f f4a1 c8be 6a95 143f e2a3 c53f
000001a0: f1fa fe3f 7e34 2c40 9a71 f13f 6a82 39bf
000001b0: 1d1c d73e 4e2e e73e 3ef7 d2be a17f 1540
000001c0: a4bc d4bf de27 0f3f 6f36 9e3f 3ae1 e5bf
000001d0: 12ac aa3f c87e 61be b14c aebf a4c5 76bf
000001e0: c021 813d 823e c73f e948 f7be 4a75 2d3f
000001f0: 34b1 ab3f 9067 52bf d589 62bf e342 95bf
00000200: 1a2b a6be 0141 2a3f 7425 5cbe 9b19 e83e
00000210: 0a77 a9bf 518c 1dbe 07f5 8d3f d793 9fbf
00000220: 0770 af3f 0ea4 cd3f c497 99bf 8591 33bd
00000230: de12 57c0 9916 20c0 a30f 2dbf 5420 e53f
00000240: f411 c13f 548e 393f e16d ad3f 4732 85bf
00000250: 586c df3f 0888 353f 7f42 bb3f 608d 43bd
00000260: 13db 163f 60dd 9b3b 396e 033f bc48 8abf
00000270: 7fd9 12be ba42 18bf 2fde c2bf cbad 383f
00000280: 7966 4fbf 4ba6 adbf 1c2e fd3f f330 2fc0
00000290: c53e 96be 4b0c 9b3f b575 26bf 3cbe f1bf
000002a0: a43f bebf 2a2a 71c0 cc6d 08be f248 a53e
000002b0: 51d5 e03f d722 0c40 bd51 6fbf d789 a93f
000002c0: 1354 12c0 776f 39bd b46e 1dbf 0dc9 58be
000002d0: 2867 65bf 533e e03f 3abb 8d3f af23 0f3f
000002e0: 1a72 5e3f 4c1a 3fc0 2578 42bf 47bb ef3d
000002f0: dc33 5b3f e6fa 57bf d523 0e3f cf8e 5d3d
00000300: 8e86 2d3e 7cca 93bf 70b7 2dc0 70e6 3bc0
00000310: 5b21 99bf bedc c53f 8067 b33e 3fae 1dc0
00000320: c2db fb3d 834a 073d c104 97bf 77b5 c33e
00000330: 72a9 ffbf 8c2f 583d a7f0 543f d5e3 e9bf
00000340: 883f 0a3f 971c 2540 7e64 d83e 5144 05c0
00000350: 5d5d 8a3f a5fe 2f3f e46c afbf 5e6c 80bb
00000360: 33a3 aa3f dca5 06c0 bf23 7bbf 8a0b f43e
00000370: 632c 683f dfc2 8b3e a5f5 3bbd dad0 2a3f
00000380: 7b28 f6bf d061 f1bf 21dc 87be dd3c 43c0
00000390: 90b5 1bc0 9892 c6be 851e dabf 71ed 8d3e
000003a0: 4e80 b8bf 37f4 06c0 9a6e b1bf 9b34 db3f
000003b0: 513b 633d 3c11 9a3f 9e1f 153f 77e0 44be
000003c0: 0406 15bf f8e1 023f 80b8 d1be dbce 7a3e
000003d0: ad8f eabf c1fa 30bf e60f 3cbf 9f87 6d3e
000003e0: 3774 c5bf 211b 94bf c815 4bc0 a08e 1ebf
000003f0: 36fe bebe 2a7a 103f 1d0b 03c0 b9a5 44bf

bias f4 [64]
-0.90041584 -0.7835343 0.28125358 1.2191544 -0.16849597 0.39017513 -1.4751706 0.9777569
2.1554918 0.17513157 -1.7101407 -0.1006049 0.7958608 -1.2748282 1.7854022 -0.93318754
1.3647645 0.16807038 -0.3586555 -1.1996588 0.11291868 0.110839605 0.29641762 -0.25495517
1.6717824 -1.7068821 1.8732737 -0.11605561 2.0142775 3.184174 -0.08095731 -1.9656398
-0.7265898 1.8771036 -1.288843 0.005856837 -1.5213292 0.075717315 2.4664915 -1.5645572
-1.7840285 0.1997704 -2.0521245 1.3631209 -0.47525495 3.6164126 0.6555358 -0.62839967
1.1748086 -0.50072247 0.9766556 1.401134 0.7399974 0.14768629 -1.6994895 1.6237414
-0.28006902 0.16794421 -0.43011683 0.2819342 -1.8013031 0.8842222 -0.49569756 2.3984966
00000000: a781 66bf b495 48bf 7800 903e 400d 9c3f
00000010: 358a 2cbe 09c5 c73e 64d2 bcbf 474e 7a3f
00000020: 94f3 0940 b155 333e e4e5 dabf f109 cebd
00000030: 89bd 4b3f 922d a3bf 0f88 e43f 61e5 6ebf
00000040: 9ab0 ae3f a41a 2c3e b2a1 b7be 6b8e 99bf
00000050: e941 e73d e0ff e23d 0dc4 973e 7c89 82be
00000060: f7fc d53f 1d7b dabf 6fc7 ef3f 90ae edbd
00000070: ece9 0040 82c9 4b40 f2cc a5bd 169a fbbf
00000080: ca01 3abf ee44 f03f cff8 a4bf b6ea bf3b
00000090: eaba c2bf ae11 9b3d ffda 1d40 6943 c8bf
000000a0: 0c5b e4bf 9d90 4c3e 0256 03c0 bf7a ae3f
000000b0: 9e54 f3be 4e73 6740 32d1 273f cdde 20bf
000000c0: 2160 963f 592f 00bf 1a06 7a3f 5c58 b33f
000000d0: 7870 3d3f 133b 173e df88 d9bf c2d6 cf3f
000000e0: 3565 8fbe 91f9 2b3e 4638 dcbe ae59 903e
000000f0: 1a91 e6bf 635c 623f 12cc fdbe f880 1940

weight f4 [64]
1.9561644 1.8316184 3.0884295 1.9827142 1.8242524 3.0646634 2.4396195 0.40855542
1.6395895 1.4427803 1.6113247 1.9225882 2.7740214 2.110872 3.0824249 2.2980351
2.9347126 2.5845385 2.850935 2.3812132 2.4418578 0.527335 1.7605957 2.39039
2.674203 2.524971 2.073057 1.2885695 2.236253 2.2572474 1.5837252 2.2467294
1.9329036 2.8033252 1.0760335 2.543003 2.3880248 2.0763125 2.1996083 1.5416497
2.5134597 2.1416996 2.2134764 2.0741725 2.0051587 2.495043 2.3476982 2.3921094
2.3234665 2.3988492 2.150211 2.2752204 2.1727138 -0.902455 1.9404395 1.5511305
-0.13334738 2.8027377 1.6176 2.746504 2.5792031 2.411651 0.3114156 2.1341577
00000000: 9863 fa3f 7972 ea3f d4a8 4540 94c9 fd3f
00000010: 1a81 e93f 7223 4440 ba22 1c40 2d2e d13e
00000020: 12de d13f 06ad b83f e33f ce3f 5f17 f63f
00000030: 9189 3140 8718 0740 7346 4540 0213 1340
00000040: 55d2 3b40 1469 2540 b875 3640 cc65 1840
00000050: 6647 1c40 6dff 063f 335b e13f 26fc 1840
00000060: 2426 2b40 2099 2140 f7ac 0440 d8ef a43f
00000070: c51e 0f40 be76 1040 82b7 ca3f 6aca 0f40
00000080: 6369 f73f ae69 3340 77bb 893f 90c0 2240
00000090: 66d5 1840 4ee2 0440 62c6 0c40 c754 c53f
000000a0: 86dc 2040 9b11 0940 99a9 0d40 3ebf 0440
000000b0: 8554 0040 c9ae 1f40 b040 1640 5218 1940
000000c0: adb3 1440 bf86 1940 0f9d 0940 369d 1140
000000d0: be0d 0b40 4a07 67bf 5260 f83f 728b c63f
000000e0: 378c 08be 0e60 3340 840d cf3f b9c6 2f40
000000f0: aa11 2540 7d58 1a40 de71 9f3e 0a96 0840

bias f4 [64]
1.0402961 0.5946113 0.50900424 0.89103097 0.4061326 -0.5772963 0.03833779 -0.14241329
0.19070563 0.17788269 0.19780122 -0.6252479 0.9857429 -0.21547268 -0.5776572 0.16500863
-0.27670226 0.044225704 0.27359864 -0.6751133 -0.43317735 -1.1690972 0.6300209 0.029340519
0.6254018 -0.3086762 -1.1571567 0.87608826 0.6250956 -0.19592345 0.27804506 0.6314601
0.807824 0.28121942 -1.0516242 0.20466334 -0.10128421 -0.06866171 1.0846177 -0.45621896
-0.20225519 0.13807155 -0.12723172 0.6494689 0.14617501 -0.34128168 0.5691875 1.007147
0.108436 0.73302555 -0.049812477 0.47823608 -0.05852074 -2.206226 -0.025645714 0.7033189
2.337907 -0.23957513 1.3995519 0.048348833 0.5522456 -0.0780633 -1.4470376 0.4239616
00000000: 6c28 853f 7238 183f 1a4e 023f 9b1a 643f
00000010: 9df0 cf3e b1c9 13bf 1608 1d3d cad4 11be
00000020: 5648 433e e126 363e 678c 4a3e 3f10 20bf
00000030: a659 7c3f dfa4 5cbe 58e1 13bf 06f8 283e
00000040: ebab 8dbe 0326 353d 1f15 8c3e 3ad4 2cbf
00000050: 6cc9 ddbe faa4 95bf 0d49 213f 875b f03c
00000060: 551a 203f cf0a 9ebe b61d 94bf 5247 603f
00000070: 4406 203f 28a0 48be ec5b 8e3e 5ea7 213f
00000080: 8ecd 4e3f fefb 8f3e 9f9b 86bf 4493 513e
00000090: 196e cfbd 839e 8cbd c1d4 8a3f 8895 e9be
000000a0: fc1b 4fbe a162 0d3e 0849 02be 9843 263f
000000b0: e7ae 153e 79bc aebe 46b6 113f 31ea 803f
000000c0: b213 de3d 90a7 3b3f 2b08 4cbd 5cdb f43e
000000d0: 72b3 6fbd cf32 0dc0 f616 d2bc b50c 343f
000000e0: 45a0 1540 2f53 75be 8424 b33f 6d09 463d
000000f0: f85f 0d3f a7df 9fbd 8738 b9bf 7f11 d93e

running_mean f4 [64]
24.593138 26.571676 19.503609 17.160671 16.897375 14.647273 9.076832 13.322321
20.814266 17.701193 23.058529 17.792242 15.353605 8.158151 27.467205 18.56411
18.519623 28.172644 14.02132 11.85633 17.495304 11.4548645 20.334053 11.838612
17.338251 10.886605 20.555758 18.867933 18.35319 21.11018 15.794207 17.231644
12.09375 17.5792 12.103592 19.55949 12.296679 17.203445 18.908285 9.6288595
10.947016 13.315535 15.991694 20.606318 24.470522 20.316618 19.760435 16.803524
17.671001 12.978652 16.873983 25.704023 12.270877 13.330042 12.853948 20.68124
12.085482 11.958743 12.919496 14.419965 15.456938 12.769039 8.584488 22.554317
00000000: bfbe c441 cb92 d441 6407 9c41 0e49 8941
00000010: d32d 8741 3b5b 6a41 b43a 1141 3a28 5541
00000020: 9e83 a641 0b9c 8d41 de77 b841 8356 8e41
00000030: 5ea8 7541 c987 0241 d6bc db41 4c83 9441
00000040: 3028 9441 9361 e141 5457 6041 87b3 3d41
00000050: 62f6 8b41 2047 3741 24ac a241 f46a 3d41
00000060: bdb4 8a41 892f 2e41 3172 a441 87f1 9641
00000070: 55d3 9241 a6e1 a841 12b5 7c41 68da 8941
00000080: 0080 4141 34a2 8c41 50a8 4141 d679 9c41
00000090: 32bf 4441 a8a0 8941 2b44 9741 cf0f 1a41
000000a0: fa26 2f41 6e0c 5541 fbdd 7f41 bdd9 a441
000000b0: a1c3 c341 6f88 a241 5f15 9e41 9e6d 8641
000000c0: 365e 8d41 8fa8 4f41 ebfd 8641 d7a1 cd41
000000d0: 8355 4441 da47 5541 c5a9 4d41 2e73 a541
000000e0: 225e 4141 0357 3f41 41b6 4e41 2db8 6641
000000f0: 9e4f 7741 fc4d 4c41 105a 0941 3e6f b441

running_var f4 [64]
1372.4047 1428.9713 744.0107 484.77823 642.9171 661.861 355.33545 371.56696
601.547 629.6451 1477.6125 684.4794 737.74457 229.3827 863.3364 916.58795
907.5053 1660.9883 878.323 456.22952 575.7746 251.25166 828.22406 460.55905
597.0845 416.16666 906.3631 830.7166 636.4179 602.7332 850.2097 642.134
425.5643 597.3416 378.6234 796.23505 498.08154 494.62253 665.2846 471.82938
450.9968 509.6992 659.907 713.6885 1190.3636 767.1432 1005.3012 884.9964
663.1809 584.63007 617.1972 880.28015 441.22058 431.5817 584.8778 785.15875
454.52454 443.94833 439.9189 812.8786 542.71356 571.26086 282.27597 640.6293
00000000: f38c ab44 159f b244 af00 3a44 9d63 f243
00000010: b2ba 2044 1b77 2544 f0aa b143 92c8 b943
00000020: 0263 1644 4969 1d44 9ab3 b844 ae1e 2b44
00000030: a76f 3844 f961 6543 88d5 5744 a125 6544
00000040: 57e0 6244 a09f cf44 ac94 5b44 611d e443
00000050: 93f1 0f44 6d40 7b43 570e 4f44 8f47 e643
00000060: 6845 1544 5515 d043 3d97 6244 ddad 4f44
00000070: bf1a 1f44 edae 1644 6c8d 5444 9388 2044
00000080: 3bc8 d443 dd55 1544 cc4f bd43 0b0f 4744
00000090: 700a f943 af4f f743 3752 2644 29ea eb43
000000a0: 977f e143 7fd9 fe43 0cfa 2444 106c 3244
000000b0: a3cb 9444 2ac9 3f44 4753 7b44 c53f 5d44
000000c0: 94cb 2544 5328 1244 9f4c 1a44 ee11 5c44
000000d0: 3c9c dc43 75ca d743 2e38 1244 294a 4444
000000e0: 2443 e343 63f9 dd43 9ff5 db43 3b38 4b44
000000f0: abad 0744 b2d0 0e44 5323 8d43 4628 2044

weight f4 [64, 64]
0.30444074 0.6473686 1.5993332 -0.8911218 -0.26438344 2.282786 0.81331676 -0.38087738
-1.9780821 -1.0297428 1.5149355 -1.0040058 2.2341208 0.6585385 -1.2108377 0.49797833
0.2507086 -0.55917627 3.6052372 0.18343124 -1.3650413 -0.75626206 0.15645438 0.7286091
0.0070806523 1.5086701 0.45380703 -0.33027706 -0.546527 -0.2515362 0.8619616 -0.28500798
-1.2136651 0.57862973 -0.3348939 -0.31787056 0.18147129 -0.66610014 -2.3618557 -0.55151415
1.9509985 0.31161785 -0.45692402 -0.35563356 -1.5033387 0.06845182 1.7239478 0.86687434
-0.2016749 -2.6648753 0.66970426 -0.07987322 0.00907645 -0.3641986 1.8032496 1.1190077
-0.0078073093 -0.59221303 -0.6705162 3.0442379 -0.60364926 1.7853158 1.3623604 -2.0262487
1.625444 1.6183864 -2.8636417 -1.3028039 -1.1167173 -0.0066795684 0.7624416 1.1162708
-2.197429 -0.6191934 0.6762156 -2.5053911 0.86742955 0.6358581 -1.5282897 0.38177842
1.7317401 0.03658942 0.7703378 -1.6538223 -1.1625031 -1.8321419 0.28132045 0.9474037
2.539522 1.3259774 0.7372337 -0.8700105 0.76640326 -1.0354149 0.18791187 -0.38479114
-0.86673236 -1.178259 -1.4156712 -1.1542927 -0.74871284 -2.2050889 0.053555097 -0.078152515
1.841647 1.4120207 -0.34747323 -0.7144746 0.92373693 1.0659252 1.9651523 2.414956
-1.437256 -1.3858196 -1.7392409 -1.6900333 0.2870892 -0.43191886 0.9347532 -0.16522387
1.0637696 0.6866507 0.11526941 1.8744233 -1.2778517 0.6097705 -0.6942289 -1.9481629
0.8239425 1.0250114 -0.72924745 -2.806103 -1.2181904 0.2165589 0.45776004 -0.030755784
-1.9673101 -0.45867035 1.5262791 -0.8078149 1.5373394 0.424211 -2.9178617 0.97480345
1.8236585 0.88110405 0.46619657 -0.90285903 -1.0306251 -0.8371095 1.1142714 1.1067833
0.1781274 1.2398634 2.920955 -1.2973573 1.0841355 -0.7500779 2.3017411 -1.5239275
0.68551975 -1.8911421 -0.95590234 -0.89675754 -0.28033283 0.5877739 -1.3831562 -0.8433409
2.2922938 0.13033362 0.23194417 -1.6392426 -0.24770658 0.6517617 2.180633 0.241827
0.059856504 -0.67706436 -0.89908516 -0.7902964 1.1375022 0.19301994 0.6246203 0.16434123
1.505304 1.0879283 0.6471205 0.79990375 -3.9162483 -0.48602474 -0.23226304 -2.0195456
-1.3180189 -0.8758866 -0.9477715 -2.7045922 -1.1638957 1.5353569 0.9155415 -1.1965501
-1.1428243 0.8705671 0.47934347 -1.0456748 0.49390814 1.4022524 -2.4767199 1.2135706
1.2009884 -0.057077873 0.35242733 -0.5235852 -1.1588042 -0.9976833 -1.0035726 0.7996539
0.52428967 1.709755 -0.46006936 0.024977796 1.6877437 -1.7186327 0.80119675 -1.5796579
-0.25267693 -0.7711706 -0.7405609 -4.025773 -0.20697631 -1.0262012 -0.5206635 0.24865986
0.7344238 1.9210509 0.28437495 -0.9307609 -0.17512706 -0.15792772 1.193372 0.800567
0.31742778 -0.8252666 -1.9162393 -2.342734 0.9871345 -0.68754596 0.86493266 -0.9086912
-0.6986466 0.41051063 0.79404366 1.5328522 -1.2647694 2.5247114 -1.0416996 -1.5995761
00000000: a8df 9b3e f3b9 253f f3b6 cc3f 8f20 64bf
00000010: 445d 87be 2a19 1240 8735 503f 5c02 c3be
00000020: cb31 fdbf 9dce 83bf 68e9 c13f 4383 80bf
00000030: d6fb 0e40 fb95 283f bbfc 9abf 04f7 fe3e
00000040: e15c 803e 2d26 0fbf 35bc 6640 66d5 3b3e
00000050: acb9 aebf 649a 41bf 9435 203e 2086 3a3f
00000060: d104 e83b 1a1c c13f 6559 e83e 131a a9be
00000070: 32e9 0bbf 5ac9 80be 84a9 5c3f 91ec 91be
00000080: 6159 9bbf 1421 143f 3777 abbe eebf a2be
00000090: 9cd3 393e 8a85 2abf a528 17c0 0830 0dbf
000000a0: 52ba f93f 608c 9f3e f2f1 e9be 9a15 b6be
000000b0: 676d c0bf 7830 8c3d 52aa dc3f 7aeb 5d3f
000000c0: dd83 4ebe 518d 2ac0 bd71 2b3f 9294 a3bd
000000d0: 64b5 143c 3d78 babe e2d0 e63f a53b 8f3f
000000e0: 75d4 ffbb 469b 17bf f3a6 2bbf cbd4 4240
000000f0: c288 1abf 3a85 e43f d361 ae3f 0fae 01c0
00000100: 8d0e d03f 4927 cf3f e845 37c0 47c2 a6bf
00000110: 98f0 8ebf 48e0 dabb 5f2f 433f f6e1 8e3f
00000120: ada2 0cc0 7583 1ebf 771c 2d3f 5458 20c0
00000130: dd0f 5e3f 99c7 223f ff9e c3bf 7678 c33e
00000140: a9a9 dd3f cade 153d dc34 453f 73b0 d3bf
00000150: e7cc 94bf a083 eabf 3c09 903e 0d89 723f
00000160: 8787 2240 a1b9 a93f 59bb 3c3f 02b9 5ebf
00000170: 0133 443f 7a88 84bf f86b 403e 5803 c5be
00000180: 2ce2 5dbf 31d1 96bf b734 b5bf ddbf 93bf
00000190: a5ab 3fbf 2d20 0dc0 975c 5b3d 6d0e a0bd
000001a0: 17bb eb3f 18bd b43f 03e8 b1be cfe7 36bf
000001b0: 067a 6c3f 3d70 883f 1c8a fb3f a48e 1a40
000001c0: 01f8 b7bf 8962 b1bf 729f debf 0353 d8bf
000001d0: 5bfd 923e 7824 ddbe fc4b 6f3f 7230 29be
000001e0: 9a29 883f 57c8 2f3f 5e12 ec3d 1aed ef3f
000001f0: a590 a3bf eb19 1c3f fcb8 31bf 675d f9bf
00000200: e5ed 523f 9333 833f f6af 3abf 3197 33c0
00000210: aaed 9bbf 9ec1 5d3e 865f ea3e 8ef3 fbbc
00000220: d1d0 fbbf d7d6 eabe 1d5d c33f f5cc 4ebf
00000230: 8ac7 c43f 2f32 d93e 3fbe 3ac0 b88c 793f
00000240: a46d e93f 0990 613f 51b1 ee3e c521 67bf
00000250: 86eb 83bf cf4c 56bf 72a0 8e3f 13ab 8d3f
00000260: 0767 363e d8b3 9e3f edf0 3a40 ce0f a6bf
00000270: f4c4 8a3f 1b05 40bf ba4f 1340 0e10 c3bf
00000280: 397e 2f3f f210 f2bf 04b6 74bf e791 65bf
00000290: c987 8fbe 5a78 163f 430b b1bf 30e5 57bf
000002a0: f1b4 1240 2d76 053e c682 6d3e b4d2 d1bf
000002b0: cba6 7dbe dbd9 263f 7e8f 0b40 7fa1 773e
000002c0: 182c 753d 1754 2dbf 722a 66bf dd50 4abf
000002d0: ac99 913f 05a7 453e 1ee7 1f3f 1149 283e
000002e0: cdad c03f 3c41 8b3f b0a9 253f 7ec6 4c3f
000002f0: d0a3 7ac0 3cd8 f8be 5dd6 6dbe 3c40 01c0
00000300: d8b4 a8bf 1b3a 60bf 27a1 72bf 0a18 2dc0
00000310: 89fa 94bf 9386 c43f ee60 6a3f 8e28 99bf
00000320: 1148 92bf 7cdd 5e3f 826c f53e acd8 85bf
00000330: 87e1 fc3e 027d b33f 9482 1ec0 4856 9b3f
00000340: fdb9 993f 7dca 69bd 5b71 b43e ae09 06bf
00000350: b253 94bf 2c68 7fbf 1175 80bf 1eb6 4c3f
00000360: d937 063f 40d9 da3f 368e ebbe 3c9e cc3c
00000370: fc07 d83f 28fc dbbf 3b1b 4d3f 3b32 cabf
00000380: df5e 81be 706b 45bf 6695 3dbf 22d3 80c0
00000390: 99f1 53be 905a 83bf 344a 05bf b1a0 7e3e
000003a0: 3303 3c3f ffe4 f53f 9899 913e 5946 6ebf
000003b0: 8254 33be ceb7 21be 6ac0 983f f5f1 4c3f
000003c0: e585 a23e ac44 53bf 5447 f5bf 5bef 15c0
000003d0: d9b4 7c3f 0303 30bf 3a6c 5d3f fd9f 68bf
000003e0: 81da 32bf 732e d23e 7246 4b3f 8034 c43f
000003f0: f7e3 a1bf df94 2140 6a56 85bf e9be ccbf

bias f4 [64]
0.56731486 2.917906 1.147082 2.238782 1.1494339 1.7561005 2.1652296 3.7631915
1.7899734 5.3499365 1.1719941 1.5056244 1.1861198 2.6504147 0.37795365 2.423935
0.92720056 1.9053596 2.711825 3.2683268 1.3716094 4.133987 4.4933105 1.553529
0.6235236 3.5884414 2.1518044 0.71324694 -0.83241504 -0.49706015 0.69923574 0.9449435
3.4198194 0.5486374 -1.7400475 4.020738 0.8522951 4.47313 0.5727428 1.8888004
2.5792274 1.3936136 1.4273031 3.3663547 3.1232443 4.823838 3.1914086 4.4698186
0.005766825 -0.27951154 0.92715895 2.343587 0.3979058 1.5187571 3.2577012 2.5386362
1.7885222 1.613471 0.6062474 2.6616411 0.04448367 3.6479373 2.4921207 -2.0709033
00000000: 8c3b 113f f9be 3a40 95d3 923f 3448 0f40
00000010: a620 933f e7c7 e03f 1f93 0a40 21d8 7040
00000020: d91d e53f ae32 ab40 e703 963f 4db8 c03f
00000030: c6d2 973f 65a0 2940 2483 c13e c021 1b40
00000040: 045d 6d3f d3e2 f33f 8a8e 2d40 442c 5140
00000050: e690 af3f 9f49 8440 33c9 8f40 0ada c63f
00000060: 3e9f 1f3f 06a9 6540 2ab7 0940 5a97 363f
00000070: 2719 55bf ab7e febe 1d01 333f d1e7 713f
00000080: 52de 5a40 8073 0c3f e0b9 debf e3a9 8040
00000090: 0330 5a3f e223 8f40 469f 123f 36c4 f13f
000000a0: 1012 2540 ee61 b23f deb1 b63f 5b72 5740
000000b0: 3ce3 4740 e25c 9a40 0a40 4c40 c108 8f40
000000c0: a2f7 bc3b 231c 8fbe 4a5a 6d3f 54fd 1540
000000d0: 4fba cb3e a266 c23f 2d7e 5040 0479 2240
000000e0: 4cee e43f 3886 ce3f 0833 1b3f 5458 2a40
000000f0: 8234 363d ce77 6940 e87e 1f40 ae89 04c0

weight f4 [64]
1.678773 1.5858756 2.5126116 1.6058643 2.161936 1.7408273 2.2737565 2.3731978
1.9407252 1.5181761 2.5716105 1.3770767 1.8981216 1.6360539 2.5566492 2.0879068
-0.04919865 1.526208 2.2643595 2.3652549 2.1145036 1.807216 0.5703304 2.6805089
1.2237796 2.201307 2.064674 2.6260612 -0.31033453 -0.77270705 0.63177985 -0.4861032
0.799177 -0.09619832 -0.7900412 2.2057366 1.331637 1.9527445 1.9819398 2.0837321
1.6696609 0.3920153 3.0595772 1.6981611 2.3383124 1.2898601 0.718116 2.440164
0.6679462 -0.9893251 2.1812494 1.846552 1.7182943 2.517511 1.6888721 2.5737786
1.5701071 2.4221683 2.01855 2.0742762 0.49026883 1.6176 1.3922122 2.0195482
00000000: 09e2 d63f f9fd ca3f a1ce 2040 f68c cd3f
00000010: 295d 0a40 6ed3 de3f 3a85 1140 79e2 1740
00000020: af69 f83f 9853 c23f 4495 2440 0d44 b03f
00000030: a6f5 f23f 376a d13f 24a0 2340 44a0 0540
00000040: 8684 49bd c95a c33f 44eb 1040 5660 1740
00000050: 0754 0740 db52 e73f 2c01 123f 758d 2b40
00000060: cfa4 9c3f 37e2 0c40 9e23 0440 6311 2840
00000070: 2be4 9ebe 21d0 45bf 53bc 213f 85e2 f8be
00000080: dd96 4c3f a003 c5bd 2440 4abf ca2a 0d40
00000090: 1573 aa3f 88f3 f93f 34b0 fd3f de5b 0540
000000a0: 73b7 d53f 3bb6 c83e 1dd0 4340 585d d93f
000000b0: e9a6 1540 231a a53f 73d6 373f a62b 1c40
000000c0: 86fe 2a3f 6944 7dbf 9799 0b40 d15b ec3f
000000d0: 11f1 db3f e61e 2140 f62c d83f cab8 2440
000000e0: 45f9 c83f ce04 1b40 ec2f 0140 f1c0 0440
000000f0: 8404 fb3e 840d cf3f 0234 b23f 4740 0140

bias f4 [64]
0.64286536 1.0257475 0.7980386 -0.77195007 -0.53325653 0.64161456 1.439778 -0.2511966
-0.80284154 0.37356356 -0.09627804 1.1771892 0.9320494 0.12072841 -0.16714214 0.15236478
2.7633672 1.1649898 -0.22334486 0.88123834 0.07144776 -0.3691799 -0.17141819 0.41117597
0.74206877 -0.11350906 -0.2463005 0.52968633 -1.8814498 -2.0132694 -3.6358614 2.4335482
-1.2184356 3.2414947 -2.34561 0.59960693 -0.008828101 -0.5780854 2.7865021 -0.17678545
0.4065272 -2.9641695 0.4540349 0.2934679 1.2348199 0.19682512 -3.21569 -0.111652575
-2.5213497 -2.147292 1.0682709 0.54261464 -1.1393207 0.58690673 0.13860859 0.42551512
0.31783932 0.6447686 -0.006413812 0.16308084 1.8661743 -0.20185551 0.48649228 0.36180675
00000000: d392 243f b24b 833f 424c 4c3f 859e 45bf
00000010: 8083 08bf da40 243f a54a b83f d79c 80be
00000020: 0687 4dbf b943 bf3e 6c2d c5bd 23ae 963f
00000030: ca9a 6e3f 7540 f73d 4f27 2bbe 8305 1c3e
00000040: 02db 3040 631e 953f 84b4 64be d698 613f
00000050: 3453 923d 2605 bdbe 4088 2fbe a885 d23e
00000060: 38f8 3d3f 7077 e8bd 3336 7cbe 8699 073f
00000070: 59d3 f0bf 68d9 00c0 f4b1 68c0 41bf 1b40
00000080: b3f5 9bbf a674 4f40 791e 16c0 d77f 193f
00000090: bda3 10bc 68fd 13bf 0d56 3240 3f07 35be
000000a0: 5524 d03e f4b4 3dc0 4377 e83e 6d41 963e
000000b0: 940e 9e3f 868c 493e ddcd 4dc0 1baa e4bd
000000c0: cb5d 21c0 3b6d 09c0 1abd 883f cbe8 0a3f
000000d0: 43d5 91bf 853f 163f 69ef 0d3e 1edd d93e
000000e0: d6bb a23e 8e0f 253f f42a d2bb aafe 263e
000000f0: cdde ee3f 36b3 4ebe 8415 f93e bc3e b93e

running_mean f4 [64]
24.161036 47.483356 35.956116 32.622234 32.617344 34.860435 37.301064 36.95919
37.181286 38.896305 33.924637 33.119183 31.173786 35.791042 19.153442 33.529156
27.645802 29.282635 35.488274 42.389835 34.718395 38.816017 39.023476 29.245453
27.28729 32.14124 42.175926 36.330196 13.243361 18.126791 25.369513 10.735119
29.522263 14.811509 19.639536 39.107716 34.786617 31.278389 23.340782 33.12348
37.93698 20.879555 25.6829 41.55902 42.124943 44.043987 31.908083 45.591557
21.494583 16.204885 35.74094 41.088837 28.95554 36.185867 36.37197 46.351124
36.978664 36.02365 24.917856 39.25165 24.41269 31.7684 33.17283 16.036005
00000000: cd49 c141 f5ee 3d42 10d3 0f42 2b7d 0242
00000010: 2978 0242 1671 0b42 4a34 1542 36d6 1342
00000020: a3b9 1442 d195 1b42 d4b2 0742 0b7a 0442
00000030: ea63 f941 072a 0f42 403a 9941 db1d 0642
00000040: 9a2a dd41 d642 ea41 fef3 0d42 318f 2942
00000050: a3df 0a42 9a43 1b42 0a18 1c42 b0f6 e941
00000060: 5f4c da41 a190 0042 26b4 2842 1f52 1142
00000070: cfe4 5341 ab03 9141 c3f4 ca41 0cc3 2b41
00000080: 982d ec41 f1fb 6c41 c51d 9d41 4d6e 1c42
00000090: 7f25 0b42 243a fa41 ecb9 ba41 727e 0442
000000a0: 78bf 1742 5409 a741 9476 cd41 703c 2642
000000b0: f17f 2842 0b2d 3042 c143 ff41 c15d 3642
000000c0: e8f4 ab41 9ba3 8141 b9f6 0e42 f85a 2442
000000d0: f2a4 e741 54be 1042 e67c 1142 8d67 3942
000000e0: 27ea 1342 3818 1042 c557 c741 b101 1d42
000000f0: 304d c341 af25 fe41 fab0 0442 bd49 8041

running_var f4 [64]
2359.0815 4525.117 3082.017 2732.5034 3410.9033 3337.4482 2726.582 2400.862
1714.7328 1607.4983 3350.1226 3653.4375 2248.1404 3356.8882 1498.2256 2629.046
1825.3694 2540.6064 1845.7467 2417.561 3613.0156 2920.2778 2252.969 1779.4805
2213.7988 2098.7048 3483.6257 4317.5547 693.93866 1230.1367 615.9639 256.64783
850.6402 378.30096 1347.5425 1306.5978 3740.4592 806.4565 1703.5734 2207.606
2738.7673 555.2284 1332.3976 1357.7526 3573.7117 1671.7928 881.1166 2685.1277
567.416 1139.1068 3781.3262 4243.402 2922.2305 2774.4812 2403.8706 3046.08
2829.2368 2701.3982 2511.0513 3135.6157 1974.9803 1165.7362 2254.4712 1204.2
00000000: 4e71 1345 f068 8d45 46a0 4045 0ec8 2a45
00000010: 742e 5545 2c97 5045 5069 2a45 cb0d 1645
00000020: 7357 d644 f2ef c844 f661 5145 0057 6445
00000030: 3f82 0c45 36ce 5145 3847 bb44 bc50 2445
00000040: d22b e444 b4c9 1e45 e5b7 e644 fa18 1745
00000050: 40d0 6145 7284 3645 81cf 0c45 606f de44
00000060: c85c 0a45 472b 0345 03ba 5945 70ec 8645
00000070: 137c 2d44 60c4 9944 b1fd 1944 ec52 8043
00000080: f9a8 5444 8626 bd43 5c71 a844 2153 a344
00000090: 59c7 6945 379d 4944 59f2 d444 b2f9 0945
000000a0: 472c 2b45 9ece 0a44 b98c a644 15b8 a944
000000b0: 635b 5f45 5ff9 d044 7647 5c44 0bd2 2745
000000c0: a0da 0d44 6b63 8e44 3855 6c45 379b 8445
000000d0: b0a3 3645 b367 2d45 ee3d 1645 4861 3e45
000000e0: cad3 3045 5fd6 2845 d2f0 1c45 daf9 4345
000000f0: 5fdf f644 8fb7 9144 8ae7 0c45 6686 9644

weight f4 [64, 64]
-0.06440115 -0.7268446 0.012117241 -1.2963284 -0.93231124 -0.08907249 1.7111834 -2.5886247
1.5955535 -2.4479892 0.7190697 -0.607685 0.66280544 -2.000799 2.609684 -0.9843737
1.6339748 -1.2246606 0.9492927 1.0287715 -0.032297857 -1.3399739 -0.6318986 0.12779143
0.035680916 -0.6966523 0.039260697 -0.90140593 0.21210244 0.059052806 0.20771486 0.80903953
-1.4460071 -0.035340186 -0.8665027 0.15143663 -0.65650666 -0.97641075 1.4786861 -1.6877744
-0.3014882 -0.30814263 0.14531957 1.647189 -1.4766064 2.087793 -0.84155303 -0.054001376
0.010846831 -2.9559548 -1.0087568 -0.91025215 -0.3481694 0.85230094 -1.1506556 0.68794304
-1.1971917 3.1192362 0.6885033 -1.2726684 0.5321444 -0.6066651 0.31915882 1.5079265
-0.2638824 1.5864625 0.2879097 -0.4337346 -0.28232494 0.06896799 1.8989925 -0.9464309
-1.6079113 -0.5467596 0.9905569 0.00530756 0.84908724 0.25235164 -0.30337295 -1.8983388
2.9400072 0.78880614 0.64733905 1.5516863 -0.1534712 -0.22994898 -1.0157712 -0.24566607
0.50037503 2.1007147 -0.48079094 -0.42116454 0.42853156 0.046116937 -1.9116641 1.5015297
-1.6656795 -0.3579032 -0.25878844 1.4134611 0.43222737 -1.1279289 -0.26297444 -1.9872004
-0.5641406 -1.7541529 -0.039199192 -0.62750876 -0.4069018 -0.14721495 -0.30960533 0.34109184
-0.8316288 -2.5351863 -2.133463 0.044046488 -0.7286512 1.7512326 -0.8154583 1.8549743
0.37319943 0.5765897 -0.6762871 -0.3532264 1.8991255 -1.0655718 -0.09631344 1.6081551
0.68240404 1.4753102 0.34299913 -0.78113085 0.7950364 0.7932345 -1.7230394 1.4744378
-0.33250397 0.12958822 0.27063924 -0.6098018 -0.6449409 0.16487224 -2.4430003 1.1978431
2.1275759 0.62892777 -2.3140926 -0.26121294 1.2307179 0.91984624 -0.082555875 -1.3930705
0.11280092 -1.1663501 0.1821621 -0.40145144 -2.6514633 -1.2310631 -1.3113506 1.7714485
-0.7520733 0.869918 -1.8658229 -0.037171822 -0.41163293 -2.319396 0.6912557 0.71287274
1.24695 -1.5894524 -0.8588172 -0.36737815 0.6712028 -1.2616494 -2.9120042 -0.1864981
-2.664711 -2.5234423 1.1181827 0.3276801 -1.2136544 -2.2931345 0.85685164 -1.5702199
1.895587 -1.0678984 1.1584383 1.0792985 0.7421783 -0.29371256 -1.2149596 -3.249675
1.778857 0.7156373 0.5148938 0.3106481 0.5797273 0.4254059 -0.77090925 0.81790656
-0.013163171 -0.023019847 0.45151258 0.76015264 0.060334396 0.2731227 -0.21403457 -0.6163139
1.6686358 2.1848633 -0.4209556 0.50548065 1.6223607 0.50722915 -0.7396321 0.02985065
-0.32030532 -1.1905544 1.2165594 2.0292068 -1.0965185 -1.2037983 -1.6791837 1.5926491
-0.09560973 1.2573625 -2.4376671 -2.2125351 -0.0124417255 -1.8445973 1.6086668 -0.6004611
1.4530783 0.04748881 -0.2576144 -1.0423616 3.012967 -1.0379066 -2.5617104 0.40628478
-0.48745444 -1.199272 1.5256995 1.3143427 -0.2175753 -1.5633074 1.1579854 -2.1543655
1.0055636 0.035334226 1.0729681 1.6834339 1.3257941 -1.7726697 -0.33134586 -1.507964
00000000: c0e4 83bd 7d12 3abf 6487 463c 17ee a5bf
00000010: f3ab 6ebf a36b b6bd 0f08 db3f 07ac 25c0
00000020: 193b cc3f dbab 1cc0 f414 383f 3f91 1bbf
00000030: 9ead 293f 170d 00c0 1005 2740 eaff 7bbf
00000040: 1626 d13f aec1 9cbf d904 733f c9ae 833f
00000050: c24a 04bd 4484 abbf 1bc4 21bf c2db 023e
00000060: 2726 123d ce57 32bf d3cf 203d 8ac2 66bf
00000070: 6231 593e 5be1 713d 34b3 543e 371d 4f3f
00000080: c316 b9bf dfc0 10bd 1fd3 5dbf 3412 1b3e
00000090: d210 28bf 0ef6 79bf 9645 bd3f fe08 d8bf
000000a0: a95c 9abe dfc4 9dbe a7ce 143e 17d7 d23f
000000b0: 7001 bdbf 679e 0540 0570 57bf 8c30 5dbd
000000c0: e8b6 313c 5d2e 3dc0 f11e 81bf 4906 69bf
000000d0: 4243 b2be 6530 5a3f af48 93bf 091d 303f
000000e0: 943d 99bf 91a1 4740 c141 303f cce6 a2bf
000000f0: 9e3a 083f 674e 1bbf c968 a33e bc03 c13f
00000100: 981b 87be 3411 cb3f e668 933e 7612 debe
00000110: e58c 90be 173f 8d3d 3012 f33f 4c49 72bf
00000120: 0ad0 cdbf 70f8 0bbf 2395 7d3f 0aeb ad3b
00000130: c85d 593f 3c34 813e b353 9bbe c4fc f2bf
00000140: 1429 3c40 33ef 493f 03b8 253f a89d c63f
00000150: 8e27 1dbe bf77 6bbe ca04 82bf e38f 7bbe
00000160: 9418 003f 1c72 0640 3b2a f6be e1a2 d7be
00000170: 7d68 db3e 1de5 3c3d 69b1 f4bf 2032 c03f
00000180: fc34 d5bf 173f b7be eb7f 84be 4bec b43f
00000190: e84c dd3e f95f 90bf 96a4 86be 955c febf
000001a0: 856b 10bf 1588 e0bf 558f 20bd 6aa4 20bf
000001b0: 6f55 d0be 84bf 16be 9784 9ebe 97a3 ae3e
000001c0: a0e5 54bf 7e40 22c0 a88a 08c0 176a 343d
000001d0: e388 3abf 6428 e03f e0c1 50bf cc6f ed3f
000001e0: ff13 bf3e 629b 133f 2721 2dbf 17da b4be
000001f0: 8b16 f33f a864 88bf fb3f c5bd 07d8 cd3f
00000200: 08b2 2e3f f7d6 bc3f 959d af3e 31f8 47bf
00000210: 8187 4b3f 6b11 4b3f 8e8c dcbf 61ba bc3f
00000220: f63d aabe c6b2 043e 3a91 8a3e f91b 1cbf
00000230: d91a 25bf 45d4 283e 1e5a 1cc0 ec52 993f
00000240: 342a 0840 6901 213f 181a 14c0 b4bd 85be
00000250: 2a88 9d3f 0b7b 6b3f 0e13 a9bd 2250 b2bf
00000260: 2b04 e73d f64a 95bf b488 3a3e 0b8b cdbe
00000270: 93b1 29c0 7a93 9dbf 56da a7bf d3be e23f
00000280: e087 40bf f2b2 5e3f 49d3 eebf 7b41 18bd
00000290: 8dc1 d2be fc70 14c0 22f6 303f d47e 363f
000002a0: 0f9c 9f3f 2d73 cbbf 72db 5bbf fd18 bcbe
000002b0: f2d3 2b3f ba7d a1bf 475e 3ac0 5cf9 3ebe
000002c0: a08a 2ac0 1480 21c0 9c20 8f3f b0c5 a73e
000002d0: 0759 9bbf b7c2 12c0 a15a 5b3f f7fc c8bf
000002e0: 98a2 f23f e5b0 88bf b547 943f 7426 8a3f
000002f0: 66ff 3d3f 7e61 96be cc83 9bbf adfa 4fc0
00000300: 96b1 e33f 0234 373f 14d0 033f 450d 9f3e
00000310: 0269 143f cdce d93e 4f5a 45bf 5362 513f
00000320: 57aa 57bc 1e94 bcbc a82c e73e 5d99 423f
00000330: 3321 773d bdd6 8b3e e12b 5bbe bfc6 1dbf
00000340: dc95 d53f cdd4 0b40 7e87 d7be 2e67 013f
00000350: 84a9 cf3f c5d9 013f 8858 3dbf 5a89 f43c
00000360: 0fff a3be 1664 98bf 38b8 9b3f 86de 0140
00000370: b85a 8cbf 1016 9abf 7eef d6bf eddb cb3f
00000380: 09cf c3bd 41f1 a03f bd02 1cc0 2d9a 0dc0
00000390: 61d8 4bbc c41b ecbf cbe8 cd3f d2b7 19bf
000003a0: 78fe b93f a083 423d 09e6 83be 1b6c 85bf
000003b0: 74d4 4040 20da 84bf 10f3 23c0 8f04 d03e
000003c0: a193 f9be bf81 99bf 1f4a c33f 623c a83f
000003d0: 0fcc 5ebe 751a c8bf de38 943f 20e1 09c0
000003e0: 4fb6 803f 9fba 103d 0557 893f c37a d73f
000003f0: 9fb3 a93f d7e6 e2bf 2aa6 a9be f704 c1bf

bias f4 [64]
0.5650765 3.2683513 7.122959 5.5780764 3.1562226 2.8454483 1.4835447 2.0705056
2.5758371 2.8863876 1.8662317 2.4228513 4.7138023 3.4434812 3.7609246 5.4295855
1.9249148 6.794082 4.250113 3.6077466 4.5230618 4.2966394 3.6320271 1.1106781
1.8210866 0.6942752 2.7121096 0.13705187 1.7021588 1.1729836 5.0510077 0.95252156
6.1196 1.9952581 4.3649597 3.7149296 3.6281466 3.4669952 2.0739417 3.2302296
1.453841 4.2210355 4.737616 1.9867597 2.0527387 6.15011 0.9712616 4.8209605
-0.6196622 4.1936173 1.5489019 0.95086426 2.6181123 4.5887175 2.7861223 2.8194263
3.258874 6.3694186 5.032658 4.6405444 2.357283 2.55246 4.929403 3.1424797
00000000: daa8 103f ab2c 5140 48ef e340 9a7f b240
00000010: 8dff 4940 d31b 3640 cbe4 bd3f 2a83 0440
00000020: 84da 2440 93ba 3840 aee0 ee3f ff0f 1b40
00000030: 78d7 9640 ff61 5c40 fdb2 7040 2abf ad40
00000040: 9c63 f63f 1f69 d940 ed00 8840 52e5 6640
00000050: ecbc 9040 127e 8940 2273 6840 b32a 8e3f
00000060: 5e19 e93f 05bc 313f 3493 2d40 5357 0c3e
00000070: 57e0 d93f 5424 963f dba1 a140 74d8 733f
00000080: c3d3 c340 9e64 ff3f c0ad 8b40 68c1 6d40
00000090: 8e33 6840 40e3 5d40 76bb 0440 15bc 4e40
000000a0: 7617 ba3f b912 8740 8d9a 9740 244e fe3f
000000b0: 1260 0340 b3cd c440 9aa4 783f 4f45 9a40
000000c0: 2fa2 1ebf 1d32 8640 6b42 c63f d76b 733f
000000d0: 278f 2740 c6d6 9240 d44f 3240 7b71 3440
000000e0: 6491 5040 47d2 cb40 890b a140 577f 9440
000000f0: badd 1640 815b 2340 abbd 9d40 631e 4940

weight f4 [64]
0.076362506 0.0100203175 -0.20989767 -0.030436382 -0.051874023 -0.07484671 -0.09483217 0.18445227
0.2671735 -0.039589886 0.003703792 -0.032222494 -0.09156897 0.034418523 -0.11120297 -0.20029853
0.034731314 0.15877065 0.108370505 0.043854386 -0.02775598 -0.2683158 0.0015887932 -0.0069143004
0.071092024 0.037327707 0.10100823 0.10925456 -0.003945059 0.0009106996 0.059202995 0.24202096
0.15055816 -0.0016430676 0.16674796 0.074857004 0.07257476 -0.115535766 0.018414488 -0.088524446
-0.07897592 -0.15444402 -0.056608114 0.32565284 -0.18645737 0.18787938 -0.032562748 0.27258897
0.0016474337 -0.082357414 0.015780063 -0.012507124 0.06896038 0.31692174 -0.10648925 -0.006360157
0.14306135 0.33414274 -0.22226156 0.19238785 0.09858356 0.16730365 0.23203133 0.020154377
00000000: f263 9c3d 422c 243c 6aef 56be b855 f9bc
00000010: db79 54bd 3b49 99bd 5e37 c2bd 0ee1 3c3e
00000020: f7ca 883e 0129 22bd 52bb 723b bcfb 03bd
00000030: 8388 bbbd 70fa 0c3d 62be e3bd 0f1b 4dbe
00000040: 6c42 0e3d c694 223e 5bf1 dd3d a8a0 333d
00000050: 8260 e3bc b060 89be 0e3f d03a 5b91 e2bb
00000060: b298 913d f0e4 183d 67dd ce3d dbc0 df3d
00000070: 8e45 81bb 04bc 6e3a d77e 723d 58d4 773e
00000080: eb2b 1a3e 335c d7ba fabf 2a3e a14e 993d
00000090: 13a2 943d 049e ecbd fbd9 963c 4e4c b5bd
000000a0: 21be a1bd 9326 1ebe e9dd 67bd f8bb a63e
000000b0: aeee 3ebe 7463 403e 8460 05bd c890 8b3e
000000c0: b4ee d73a 01ab a8bd 3145 813c aeea 4cbc
000000d0: 1a3b 8d3d 9143 a23e 0917 dabd dd68 d0bb
000000e0: ad7e 123e c214 ab3e 8998 63be 5201 453e
000000f0: 2de6 c93d a651 2b3e 9f99 6d3e cb1a a53c
